data/density_critic_models/level_2/generator.pth (torch, 349074 bytes, 8 tensors)

weight f4 [64, 3, 1, 1, 1]
0.22658488 0.39980417 0.61596674 -0.27175552 0.33600146 0.031252477 0.0004892343 -0.35723633
0.7252602 0.11176042 -0.5005341 -0.06742099 -0.0064272443 -0.30135983 -0.016464872 -0.32401136
-0.33972734 0.05939054 -0.56029236 -0.17444493 0.24756292 -0.4653158 0.43923244 0.04000178
-0.20780963 0.38854244 0.5429981 -0.12476728 -0.3612566 0.13611098 -0.23162328 0.054937012
0.44694802 -0.006313866 -0.14841077 0.008932666 -0.398411 -0.49089223 0.5507473 -0.55969685
0.2526501 -0.19106539 -0.37398902 -0.40020618 -0.5116272 -0.5012773 0.37936944 0.26225668
0.52495366 0.31515265 -0.19105087 -0.53024524 -0.22807822 0.3643464 0.35168856 0.6096712
0.31527433 -0.34214327 0.6921172 -0.2481793 0.5140248 0.6043806 -0.058284253 -0.268256
0.42803892 0.48040125 -0.31622052 -0.10297196 -0.22051124 0.21094403 0.30556852 0.17300744
-0.16496377 0.5406932 0.33992016 0.6339874 -0.038834497 0.5979809 0.27356964 -0.12875438
0.19966911 -0.51018757 -0.5155886 0.42671403 0.4885993 0.53965306 -0.5091768 0.16055126
-0.10020105 0.0890541 0.18022409 0.05891992 -0.5488611 0.028279725 0.08973116 0.07852082
0.122499816 0.16331217 0.5224032 0.14331895 -0.05419295 -0.35799238 0.11904647 -0.5370468
-0.57114786 -0.57302505 -0.18605581 0.38684914 0.099137016 0.46738824 0.56091857 0.24630354
-0.5248398 -0.41036016 -0.07480156 0.39007312 0.12397596 -0.4324511 -0.4193614 0.560162
-0.43598774 0.19852495 -0.01647406 0.5296456 -0.037889518 0.53903955 -0.3198633 0.24401021
0.10704916 -0.6298647 0.3968141 -0.7075789 0.42048442 -0.42147565 -0.119770624 -0.017317446
0.24396245 -0.6109256 0.28026918 0.30660018 0.44267842 -0.082323566 -0.039757263 -0.12628892
-0.2652616 0.41408214 0.10485304 0.43060294 -0.27154922 0.33451322 -0.4728839 -0.5796869
0.3297875 -0.5382946 0.2533173 0.17875446 -0.17414916 -0.3024897 0.3235748 -0.4939883
-0.34678426 -0.69062096 -0.04995674 0.5525245 -0.46965525 -0.2764784 -0.30041462 -0.18034355
0.4661197 -0.21609543 0.14373423 -0.5043017 0.3066982 0.35747558 -0.21210198 0.12396972
0.6966113 -0.30526885 -0.2835835 -0.16526937 0.6406601 0.06499637 -0.17060713 0.120558895
-0.5696448 -0.2592689 -0.24244924 -0.0053062635 -0.0029513184 -0.44949403 0.20166627 0.23187746
00000000: de05 683e 22b3 cc3e ffaf 1d3f 8a23 8bbe
00000010: 6208 ac3e 9902 003d f53f 003a aee7 b6be
00000020: a7aa 393f a6e2 e43d 0123 00bf 0414 8abd
00000030: a29b d2bb d64b 9abe 57e1 86bc d1e4 a5be
00000040: bef0 adbe 7f43 733d 526f 0fbf b1a1 32be
00000050: 2281 7d3e df3d eebe 13e3 e03e e8d8 233d
00000060: 0ccc 54be 09ef c63e ec01 0b3f fd85 ffbd
00000070: a0f6 b8be ad60 0b3e a72e 6dbe a205 613d
00000080: 5fd6 e43e 8ce4 cebb fef8 17be 515a 123c
00000090: 87fc cbbe 3a56 fbbe c6fd 0c3f 4b48 0fbf
000000a0: 5b5b 813e a5a6 43be 7d7b bfbe d3e7 ccbe
000000b0: 00fa 02bf b653 00bf b63c c23e 8246 863e
000000c0: 5d63 063f b05b a13e d7a2 43be 27be 07bf
000000d0: 568d 69be 9d8b ba3e 8610 b43e 6913 1c3f
000000e0: a36b a13e 672d afbe 982e 313f b722 7ebe
000000f0: 2197 033f b0b8 1a3f 78bb 6ebd da58 89be
00000100: eb27 db3e 27f7 f53e a8e7 a1be f7e2 d2bd
00000110: b3cd 61be b601 583e 7a73 9c3e dd28 313e
00000120: 43ec 28be df6a 0a3f 040a ae3e 004d 223f
00000130: ec10 1fbd 4715 193f 5211 8c3e 30d8 03be
00000140: 0f76 4c3e a79b 02bf 9dfd 03bf 437a da3e
00000150: b029 fa3e b426 0a3f 6959 02bf 8d67 243e
00000160: 3536 cdbd ff61 b63d aa8c 383e 0456 713d
00000170: 2982 0cbf e2aa e73c f8c4 b73d 86cf a03d
00000180: 2fe1 fa3d 4e3b 273e 37bc 053f 34c2 123e
00000190: 6df9 5dbd c74a b7be a3ce f33d e67b 09bf
000001a0: bf36 12bf c5b1 12bf 6a85 3ebe 1711 c63e
000001b0: 5908 cb3d 834d ef3e 5c98 0f3f ff36 7c3e
000001c0: e75b 06bf ba1a d2be 8f31 99bd aab7 c73e
000001d0: 1ce7 fd3d 3b6a ddbe 8ab6 d6be c766 0f3f
000001e0: c939 dfbe 204a 4b3e 9cf4 86bc db96 073f
000001f0: 0a32 1bbd 7ffe 093f 1fc5 a3be d0dd 793e
00000200: 973c db3d d03e 21bf 382b cb3e e423 35bf
00000210: bc49 d73e a8cb d7be 4d4a f5bd 51dd 8dbc
00000220: 4bd1 793e 9f65 1cbf 717f 8f3e b3fa 9c3e
00000230: bfa6 e23e 4299 a8bd 83d8 22bd e251 01be
00000240: 5ed0 87be 9302 d43e 31bd d63d fd77 dc3e
00000250: 8008 8bbe 5145 ab3e d71d f2be 5c66 14bf
00000260: e8d9 a83e adcd 09bf ceb2 813e 690b 373e
00000270: 2854 32be eedf 9abe 99ab a53e 09ec fcbe
00000280: b58d b1be 89cc 30bf 709f 4cbd 3f72 0d3f
00000290: a776 f0be 948e 8dbe f2cf 99be fbab 38be
000002a0: 3ea7 ee3e 1f48 5dbe 112f 133e eb19 01bf
000002b0: 8c07 9d3e 0a07 b73e 4331 59be d6e3 fd3d
000002c0: 1e55 323f 334c 9cbe db31 91be 603c 29be
000002d0: 4d02 243f d11c 853d a3b3 2ebe 95e7 f63d
000002e0: 3ed4 11bf e5be 84be 9d44 78be 2ae0 adbb
000002f0: e86a 41bb 1524 e6be 9a81 4e3e 4971 6d3e

bias f4 [64]
0.40389854 0.114387244 -0.26927942 -0.31576324 0.4639699 -0.2818243 0.14026158 0.14987868
0.6685871 0.4015539 -0.6141735 0.6619426 -0.40556362 0.515302 -0.15521029 -0.2818975
-0.47548595 0.6371685 0.6129612 0.49502772 0.087195925 0.26556417 -0.5221055 -0.41287413
0.14265552 0.23088247 -0.41245702 0.272762 0.39634266 0.47258672 0.44474578 0.6324609
-0.39319262 -0.4753877 0.23667331 -0.058078665 -0.222614 -0.2008222 -0.04440241 -0.5093388
-0.37998846 -0.44035405 -0.574188 0.45464337 0.24400578 0.65464056 -0.04719271 -0.5359166
0.6774796 -0.10645454 0.2905671 -0.62365127 -0.55447185 -0.20034543 0.4065252 0.024383012
0.5574375 -0.02817076 -0.005260133 -0.35886562 -0.5169645 -0.6206671 0.62905335 0.34399486
00000000: cacb ce3e dc43 ea3d fede 89be b8ab a1be
00000010: 768d ed3e 464b 90be bba0 0f3e cc79 193e
00000020: 8628 2b3f 7998 cd3e 793a 1dbf 1275 293f
00000030: 09a6 cfbe d5ea 033f 72ef 1ebe de54 90be
00000040: e572 f3be 7a1d 233f 06eb 1c3f 4674 fd3e
00000050: c793 b23d 07f8 873e b5a8 05bf 3d64 d3be
00000060: 4a14 123e 746c 6c3e 912d d3be 76a7 8b3e
00000070: 6ded ca3e e3f6 f13e b8b5 e33e f5e8 213f
00000080: 8b50 c9be 0466 f3be 7d5a 723e e5e3 6dbd
00000090: edf4 63be 56a4 4dbe 4ddf 35bd 0764 02bf
000000a0: d98d c2be 1676 e1be fcfd 12bf 04c7 e83e
000000b0: a7dc 793e 8696 273f 254d 41bd d531 09bf
000000c0: 4e6f 2d3f d604 dabd 36c5 943e 9ca7 1fbf
000000d0: def1 0dbf 5a27 4dbe 1224 d03e e2be c73c
000000e0: 39b4 0e3f 5ec6 e6bc 325d acbb 3cbd b7be
000000f0: c957 04bf 0ae4 1ebf a409 213f 1820 b03e

weight f4 [32, 65, 3, 3, 3]
-0.0073204227 0.0068432023 0.0022342515 0.02216353 0.017207233 -0.009863166 0.013770601 -0.005443487
0.003005065 0.00072524796 0.023518994 -0.016237138 -0.007401003 -0.01664837 0.024740782 0.010214633
-0.0022695025 0.005970834 0.002639158 0.020594565 -0.025599323 -0.00645413 0.003727563 -0.029333606
-0.0036712673 -0.017658575 -0.01639575 -0.016847957 -5.9104164e-05 -0.013750344 0.021658462 0.028303195
0.0055179284 -4.7953596e-05 0.022263847 -0.010373738 -0.00046133643 -0.012869322 -0.0031989566 0.0059262034
0.0024580674 -0.0148068825 0.015955001 -0.00045954733 0.029500578 0.010364711 -0.018928109 -0.0042630793
-0.010843068 -0.015412574 -0.033321273 -0.007975041 -0.026431188 -0.02293435 0.026509084 0.015623364
0.010693597 -0.014203471 -0.00796176 0.030257367 0.02531365 -0.01303635 -0.0034911262 -0.0070319716
0.0010250943 0.036967624 -0.032238595 -0.053285394 0.019523108 0.008594925 -0.05241183 0.015097792
0.0058680084 0.01207981 0.011379422 0.016563615 -0.030288529 0.018248659 0.02073619 -0.01583517
0.042126656 0.007634936 -0.009061824 -0.015196242 0.010315331 -0.007268401 0.006712785 -0.020166468
-0.01873056 -0.018113388 -0.015500317 -0.01182201 0.013056209 0.006655781 -0.007444711 0.008184927
-0.015680982 -0.02696354 0.021613978 -0.0066110375 0.024409916 0.01068679 -0.01055402 0.030674314
0.034811847 0.00782111 0.028978782 0.024140242 0.009150199 0.016908485 0.01209804 0.01466944
-0.027147148 -0.004642255 -0.011203817 -0.008954147 -0.011653053 -0.011386476 6.7753244e-05 0.00898732
0.005445387 0.0021160129 -0.006722361 0.008751891 -0.012865598 0.014805542 0.018542947 0.013213362
0.024776217 0.0016292963 0.03414198 0.062579036 0.042888433 0.015562264 0.010483741 -0.01991547
0.008641114 -0.0224672 0.01488581 -0.014630472 0.007917311 0.017593414 -0.006483761 -0.011447087
-0.028196644 -0.021922756 0.012297842 -0.008672858 0.0034030937 0.011156074 -0.008729723 0.005882576
-0.0058840658 -0.0024037873 0.0041601816 0.0044127624 -0.010511558 0.0064656734 0.011679881 0.017593617
0.013064379 -0.0059219007 0.0056187604 0.013028886 -0.0050089057 -0.014891646 -0.011035222 -0.0144975325
0.016339151 -0.014651056 -0.020329367 -0.026743785 -0.02727849 0.007681845 0.02508537 -0.009407508
0.012859501 0.035929456 0.014170403 0.0055112154 0.022974046 -0.024839705 0.024685627 0.031941272
-0.00061134575 0.010063974 0.02113877 -0.005745811 -0.01209436 0.005555469 -0.0048635644 0.0013670665
0.01731761 0.040307935 0.010226387 -0.027502052 -0.0115650045 0.004638292 0.0061941454 0.014475252
-0.019102849 0.03834769 0.012811078 0.005011309 -0.011036746 0.007657355 0.0063143284 0.016678756
-0.013353251 -0.0134341335 0.020563273 0.015006033 -0.02921797 -0.012268608 0.009748566 -0.03185844
-0.003183074 -0.018493306 0.014758493 0.008561322 0.027269267 0.02939645 -0.0046830666 -0.013161315
0.00726743 0.0062481174 0.014301455 -0.010229339 -0.011644693 0.004559204 0.01906229 -0.008599621
-0.010816143 0.021450372 0.016070489 0.016719094 0.011870823 -0.010027782 -0.026990889 0.008401551
-0.0068230885 -0.008538971 -0.010252113 0.0052866414 -0.009613571 0.030198094 0.027245795 0.00058117014
0.0257988 0.030158577 -0.018102134 0.017675612 -0.012707091 0.008446722 0.019202596 0.004775631
00000000: 28e0 efbb f13c e03b 856c 123b 4b90 b53c
00000010: 2ff6 8c3c 1e99 21bc 169e 613c 475f b2bb
00000020: a0f0 443b 911e 3e3a e8aa c03c bf03 85bc
00000030: 1d84 f2bb 2a62 88bc 2ead ca3c 475b 273c
00000040: efbb 14bb fca6 c33b b9f5 2c3b efb5 a83c
00000050: acb5 d1bc 2b7d d3bb 214a 743b 084d f0bc
00000060: a599 70bb b7a8 90bc 6150 86bc ba04 8abc
00000070: 9de6 77b8 1f49 61bc 166d b13c 1adc e73c
00000080: bdcf b43b c821 49b8 ac62 b63c 9cf6 29bc
00000090: 87df f1b9 d9d9 52bc 96a5 51bb 9930 c23b
000000a0: 8717 213b 9198 72bc 10b4 823c 66ef f0b9
000000b0: 32ab f13c c0d0 293c 1f0f 9bbc 4db1 8bbb
000000c0: 20a7 31bc 0585 7cbc e37b 08bd bfa9 02bc
000000d0: 3886 d8bc d1e0 bbbc 9429 d93c 23f9 7f3c
000000e0: 3234 2f3c adb5 68bc 0b72 02bc 4cde f73c
000000f0: 925e cf3c 6a96 55bc 61cb 64bb 746c e6bb
00000100: 755c 863a 5d6b 173d 9e0c 04bd c941 5abd
00000110: edee 9f3c bad1 0c3c c9ad 56bd bb5c 773c
00000120: 6c48 c03b 65ea 453c c170 3a3c 6bb0 873c
00000130: a61f f8bc 367e 953c f1de a93c c2b8 81bc
00000140: 008d 2c3d 7c2e fa3b 0b78 14bc a9f9 78bc
00000150: a201 293c c42b eebb ecf6 db3b 2634 a5bc
00000160: d570 99bc 8762 94bc 0bf5 7dbc 1bb1 41bc
00000170: b6e9 553c bd18 da3b c3f2 f3bb 121a 063c
00000180: 6775 80bc a4e2 dcbc cc0f b13c 67a1 d8bb
00000190: 4ef7 c73c a517 2f3c c5ea 2cbc b348 fb3c
000001a0: de96 0e3d 1d24 003c e964 ed3c c2c1 c53c
000001b0: b7ea 153c aa83 8a3c dc36 463c 1758 703c
000001c0: b263 debc 0f1e 98bb 3790 37bc 6ab4 12bc
000001d0: 72ec 3ebc 588e 3abc bf16 8e38 8d3f 133c
000001e0: 386f b23b ceac 0a3b 4047 dcbb 1764 0f3c
000001f0: 3bca 52bc f292 723c 61e7 973c db7c 583c
00000200: 7ef7 ca3c 1d8e d53a 76d8 0b3d 7029 803d
00000210: c8ab 2f3d def8 7e3c ffc3 2b3c c525 a3bc
00000220: 7693 0d3c 220d b8bc 9de3 733c a6b4 6fbc
00000230: 9cb7 013c 1020 903c bb75 d4bb 908c 3bbc
00000240: a6fc e6bc 5a97 b3bc e37c 493c 9a18 0ebc
00000250: 7006 5f3b f7c7 363c 1d07 0fbc a0c2 c03b
00000260: 1fcf c0bb dc88 1dbb 2252 883b ef98 903b
00000270: ab38 2cbc 00de d33b f95c 3f3c 7d20 903c
00000280: fa0b 563c 810c c2bb 941d b83b 1c77 553c
00000290: bf21 a4bb 17fc 73bc 13cd 34bc 0f87 6dbc
000002a0: afd9 853c fc0a 70bc c689 a6bc c815 dbbc
000002b0: 2477 dfbc fdb7 fb3b d57f cd3c f321 1abc
000002c0: a8b0 523c c42a 133d fa2a 683c 6d97 b43b
000002d0: 1134 bc3c a37c cbbc 8339 ca3c dad4 023d
000002e0: b842 20ba 5ee3 243c 372b ad3c 5b47 bcbb
000002f0: 6c27 46bc a70a b63b 895e 9fbb 242f b33a
00000300: a9dd 8d3c ef19 253d 938c 273c fc4b e1bc
00000310: 257b 3dbc d0fc 973b 42f8 ca3b 9b29 6d3c
00000320: 947d 9cbc 7812 1d3d 8ee5 513c e835 a43b
00000330: 78d3 34bc 8dea fa3b 6de8 ce3b e3a1 883c
00000340: 98c7 5abc d71a 5cbc 4f74 a83c dddb 753c
00000350: 865a efbc 4602 49bc 73b8 1f3c ff7d 02bd
00000360: 1f9b 50bb 467f 97bc 9bcd 713c ca44 0c3c
00000370: cc63 df3c d3d0 f03c 6974 99bb 8ea2 57bc
00000380: 9f23 ee3b 02bd cc3b a650 6a3c f598 27bc
00000390: 62c9 3ebc 6065 953b 8528 9c3c 6de5 0cbc
000003a0: 3136 31bc b1b8 af3c 42a6 833c 7bf6 883c
000003b0: d77d 423c 914b 24bc ff1b ddbc a9a6 093c
000003c0: 3794 dfbb 0ae7 0bbc 7bf8 27bc 903b ad3b
000003d0: 3d82 1dbc fe61 f73c 9332 df3c ab59 183a
000003e0: 0158 d33c 1f0f f73c ed4a 94bc 72cc 903c
000003f0: 6731 50bc 1f64 0a3c c34e 9d3c e57c 9c3b

bias f4 [32]
-0.025692977 -0.08536823 0.08419485 0.037067857 0.008909831 0.01283456 0.015549974 0.04568889
0.022978967 -0.035985388 0.0025654703 0.03338799 0.04672506 0.076206245 0.03298817 0.0027894832
-0.0011286045 -0.019683857 0.0011356311 1.1259682e-05 0.011292895 0.00991035 0.00854436 0.031440888
-0.05689578 -0.019898783 -0.016261177 -0.03660839 0.052194625 0.04519327 -0.006833323 0.03137333
00000000: 147a d2bc 8ad5 aebd 596e ac3d 77d4 173d
00000010: 8afa 113c 0c48 523c 51c5 7e3c 4624 3b3d
00000020: 633e bc3c 6a65 13bd 7321 283b d8c1 083d
00000030: c762 3f3d 0512 9c3d 9a1e 073d c3cf 363b
00000040: afed 93ba 0a40 a1bc 75d9 943a f7e7 3c37
00000050: d605 393c 055f 223c a5fd 0b3c 29c8 003d
00000060: 8d0b 69bd c602 a3bc 2936 85bc aef2 15bd
00000070: 08ca 553d 941c 393d 11ea dfbb 5281 003d

weight f4 [32, 33, 3, 3, 3]
-0.015182386 -0.020648448 -0.03587454 0.01567982 -0.02992379 -0.040199704 -0.027019655 0.020360166
-0.02601683 0.0051034265 0.01377758 -0.009327762 -0.010112619 -0.013661371 0.0036071313 -0.016670786
0.02019487 -0.0012556167 -0.021170868 0.020045536 -0.01883306 -0.009402132 -0.008529246 0.018675346
-0.028603826 0.0094205495 -0.02062307 0.05284182 0.10982745 0.058876704 0.094278514 0.121156886
0.12446403 0.019136447 0.07428844 0.0554348 0.053342175 0.1228223 0.07377527 0.04125002
0.07372781 0.13921511 0.08610002 0.04059022 0.11894719 0.12946953 0.0405245 0.09043275
0.07838944 0.049929857 0.08395259 0.09019673 0.000451807 0.0007569549 0.027755443 -0.0077010766
0.013339795 0.026976522 -0.0037098664 0.028494291 -0.0018998573 -0.00475493 -0.008030833 0.01919013
-0.026846567 -0.012197433 -0.03234663 0.034742683 -0.02668473 0.007312815 0.009474812 0.031823378
0.0076621217 0.00092785043 -0.028663881 0.0009353337 -0.0035623354 0.0005587389 0.0057340423 0.025933614
0.027008448 0.019165335 0.028047735 -0.021124152 -0.021062125 -0.011141468 -0.027382046 0.028991379
0.010162481 -0.033550102 -0.016139658 0.010693401 -0.007898035 0.013327704 0.0151372105 0.024721256
0.03712084 0.04154032 -0.013314868 0.03245709 -0.022847949 -0.027951073 0.02640662 0.027201679
-0.02319033 -0.0070919995 0.012316576 0.032089505 0.0012507539 -0.021941666 0.016720744 -0.028196124
0.031779893 0.005257293 0.028332718 0.03591015 -0.028844938 -0.0022555501 -0.00023262155 0.020834234
-0.028299022 -0.015838074 0.00040367106 0.0076503423 -0.013813147 0.041111518 -0.017971473 0.033597764
0.009500614 0.012233891 -0.020441512 -0.008340836 0.006315984 -0.02062729 0.022200925 -0.029916653
0.0015708491 0.0016372694 -0.02723288 -0.020431913 0.0037731554 -0.0029093418 0.009404858 -0.046327755
-0.011209351 0.02980906 -0.006637011 0.019357543 0.02550641 0.044884644 0.013388688 0.020020295
-0.003332013 -0.011162682 0.032974638 -0.007188461 0.0038790158 -0.020411948 0.017799752 -0.011244477
0.016552972 -0.029182078 0.031976875 0.018923305 -0.043676306 0.037366886 0.011472685 -0.042005
0.010767912 0.034866933 0.013798621 0.014944933 -0.0043045687 -0.022057371 0.03252538 0.026888054
0.019477766 -0.013682348 0.016079662 -0.0071413578 -0.010178732 0.0115004005 0.022479745 0.017969856
-0.011410095 0.021318436 -0.010222867 -0.01400157 -0.035631917 0.10916029 0.054134097 0.10439557
-0.037289638 -0.09125328 -0.0019118605 0.04704026 -0.042103775 0.054776106 0.014812603 -0.07113947
-0.05330178 -0.018010234 -0.20542718 -0.15045606 -0.011672703 -0.082240224 -0.09077733 0.026021525
0.012631458 -0.034230974 0.052706487 0.008500166 -0.099574536 0.077290185 0.017982963 -0.041228645
-0.0051547643 -0.018082255 0.00789434 0.03513118 0.0022831724 -0.020876125 0.012384403 0.007200892
-0.031653427 0.016123815 0.011544133 0.011414102 0.012659805 0.025770254 0.045855075 0.029463265
-0.00038057327 0.0103463475 -0.0065628677 -0.0066205095 0.02290722 -0.028627275 -0.030577749 0.020727571
0.014291337 -0.016495803 0.0013687118 0.04417888 0.0071517923 0.032712433 0.041960634 0.010467697
0.015522013 0.043626398 0.038614873 0.024053339 0.06350223 0.036850557 0.059256732 0.063814014
00000000: 8bbf 78bc ef26 a9bc 2ff1 12bd f772 803c
00000010: bc22 f5bc 72a8 24bd 5358 ddbc 5dca a63c
00000020: 3f21 d5bc a53a a73b 5cbb 613c 78d3 18bc
00000030: 66af 25bc f1d3 5fbc 9f65 6c3b 2c91 88bc
00000040: b66f a53c 8193 a4ba 876e adbc 8936 a43c
00000050: ca47 9abc 660b 1abc 40be 0bbc 0afd 983c
00000060: 9252 eabc a658 1a3c b6f1 a8bc aa70 583d
00000070: 37ed e03d b328 713d 1815 c13d 1a21 f83d
00000080: ffe6 fe3d 0ac4 9c3c 8a24 983d 9a0f 633d
00000090: 537d 5a3d 428a fb3d 7d17 973d c8f5 283d
000000a0: 9bfe 963d 688e 0e3e 3555 b03d ee41 263d
000000b0: 969a f33d a993 043e 05fd 253d ce34 b93d
000000c0: a58a a03d 4083 4c3d 56ef ab3d 10b9 b83d
000000d0: 82e0 ec39 626e 463a 625f e33c 5059 fcbb
000000e0: 288f 5a3c defd dc3c 3b21 73bb dc6c e93c
000000f0: a204 f9ba 3ecf 9bbb c193 03bc 9f34 9d3c
00000100: 55ed dbbc bed7 47bc e67d 04bd 584e 0e3d
00000110: ef99 dabc 57a0 ef3b 3e3c 1b3c 3b59 023d
00000120: 8912 fb3b fd3a 733a 84d0 eabc 2f31 753a
00000130: 1276 69bb 5578 123a a2e4 bb3b bb72 d43c
00000140: d240 dd3c 9f00 9d3c 5dc4 e53c 8f0c adbc
00000150: 7a8a acbc b48a 36bc 5050 e0bc 547f ed3c
00000160: 8980 263c d56b 09bd 5137 84bc 6033 2f3c
00000170: c366 01bc 715c 5a3c 1002 783c 3b84 ca3c
00000180: 060c 183d 2f26 2a3d 9b26 5abc baf1 043d
00000190: 9f2b bbbc a6f9 e4bc b252 d83c 0ed6 de3c
000001a0: a6f9 bdbc 0164 e8bb 77cb 493c 4970 033d
000001b0: 56f0 a33a 02bf b3bc f1f9 883c 8ffb e6bc
000001c0: a22b 023d 5f45 ac3b 041a e83c 8516 133d
000001d0: 384c ecbc dad1 13bb dfeb 73b9 8eac aa3c
000001e0: 5ad3 e7bc d9be 81bc d0a3 d339 b9af fa3b
000001f0: 8a50 62bc 8d64 283d e938 93bc cf9d 093d
00000200: 77a8 1b3c a870 483c f574 a7bc 00a8 08bc
00000210: 50f6 ce3b 90fa a8bc b7de b53c c513 f5bc
00000220: f3e4 cd3a a599 d63a 7d17 dfbc d460 a7bc
00000230: 0b47 773b a8aa 3ebb d516 1a3c 2cc2 3dbd
00000240: 6da7 37bc 2132 f43c 497b d9bb b693 9e3c
00000250: d2f2 d03c f6d8 373d 3a5c 5b3c 9a01 a43c
00000260: e75d 5abb afe3 36bc 6a10 073d 2e8d ebbb
00000270: 1637 7e3b f536 a7bc c9d0 913c c13a 38bc
00000280: 199a 873c 410f efbc 2ffa 023d 0c05 9b3c
00000290: ede5 32bd 050e 193d eef7 3b3c 6f0d 2cbd
000002a0: e56b 303c a1d0 0e3d 9c13 623c 98db 743c
000002b0: 570d 8dbb a9b1 b4bc 5539 053d 5644 dc3c
000002c0: d68f 9f3c ed2b 60bc 7fb9 833c 0d02 eabb
000002d0: b2c4 26bc 2d6c 3c3c 7127 b83c 8535 933c
000002e0: 68f1 3abc 00a4 ae3c d07d 27bc d766 65bc
000002f0: c6f2 11bd 6e8f df3d b7bb 5d3d 58cd d53d
00000300: 05bd 18bd 00e3 babd 6597 faba 4aad 403d
00000310: 0275 2cbd e95c 603d 8fb0 723c 92b1 91bd
00000320: f852 5abd 338a 93bc 815b 52be 2711 1abe
00000330: dd3e 3fbc 906d a8bd 77e9 b9bd 182b d53c
00000340: 2df4 4e3c c735 0cbd c2e2 573d 4844 0b3c
00000350: bced cbbd 514a 9e3d 0251 933c 5edf 28bd
00000360: 4ce9 a8bb 3d21 94bc 4357 013c b6e5 0f3d
00000370: 47a1 153b 6804 abbc f3e7 4a3c 76f5 eb3b
00000380: 06a7 01bd 1716 843c 9a23 3d3c 3702 3b3c
00000390: 126b 4f3c 241c d33c 88d2 3b3d f25c f13c
000003a0: ae87 c7b9 ba83 293c 530d d7bb dcf0 d8bb
000003b0: eca7 bb3c bf83 eabc 307e fabc decc a93c
000003c0: 3626 6a3c 3522 87bc 5966 b33a eaf4 343d
000003d0: 9559 ea3b 79fd 053d eade 2b3d b480 2b3c
000003e0: 0b50 7e3c 98b1 323d a12a 1e3d 820b c53c
000003f0: 750d 823d 9cf0 163d 30b7 723d ecb0 823d

bias f4 [32]
0.0046206126 0.020416977 0.047899075 0.01576158 -0.038733114 0.024954349 -0.010019338 -0.0047614984
0.026090235 -0.002019829 0.004371663 -0.0052728937 0.0010767386 -0.0018825497 -0.020624125 -0.029536478
-0.01756043 0.032428626 0.0019455566 0.034044884 -0.024093447 0.04215781 0.03376741 0.02426356
0.014914946 -0.017264253 0.021087196 0.013096061 0.013252059 0.015467672 -0.026789624 0.017918022
00000000: 8268 973b 8141 a73c d231 443d 6e1e 813c
00000010: 9da6 1ebd 106d cc3c 2628 24bc 5806 9cbb
00000020: 30bb d53c 1b5f 04bb 2b40 8f3b 3dc8 acbb
00000030: 5a21 8d3a e3bf f6ba edf3 a8bc 7cf6 f1bc
00000040: e4da 8fbc e1d3 043d 0c02 ff3a a672 0b3d
00000050: 9f5f c5bc abad 2c3d b24f 0a3d 60c4 c63c
00000060: d15d 743c c36d 8dbc 0ebf ac3c dc90 563c
00000070: 2a1f 593c 1e6c 7d3c ea75 dbbc d1c8 923c

weight f4 [3, 32, 1, 1, 1]
0.22183688 0.23725647 0.04287228 -0.17280924 -0.15063679 0.30201507 -0.21661007 -0.1384429
0.18699586 -0.18081965 -0.0054263286 0.23144071 -0.08690373 -0.23308563 0.16179259 0.13877334
-0.19301069 -0.15634567 0.10688079 -0.15609647 -0.10557916 0.13087256 -0.12250882 0.26081058
0.080851816 0.12657546 -0.001062432 -0.16721173 0.37577567 -0.187012 0.32542738 0.28160617
0.052966874 -0.122305885 0.14417408 -0.06957326 -0.20518771 -0.18596578 -0.10249096 -0.15036227
0.20337816 -0.02667428 0.18494134 -0.31319487 0.04936891 0.2970602 -0.27618083 -0.14785372
-0.23607065 0.24903426 0.14687431 0.3109802 -0.110842764 0.10873691 0.18015204 0.21013743
-0.2886249 -0.08550376 -0.14361633 0.14467026 -0.012375033 0.33281952 0.24138327 0.1930438
-0.13540554 0.16169617 -0.093728855 0.27333924 0.02411675 0.030946704 0.15586478 0.14483008
0.19986655 -0.23068929 -0.0016980341 0.024603104 -0.2861277 0.27646026 -0.22137423 -0.0079747215
-0.23350222 0.187321 0.28520346 -0.31111622 0.1556191 0.030164784 -0.026757061 0.04914618
0.30605656 -0.11476667 0.28170392 -0.00919321 -0.011818568 0.19962887 -0.28301102 0.10988901
00000000: 3529 633e 5cf3 723e d89a 2f3d e8f4 30be
00000010: 8840 1abe b8a1 9a3e 08cf 5dbe fac3 0dbe
00000020: d87b 3f3e c928 39be 58cf b1bb cbfe 6c3e
00000030: 95fa b1bd 00ae 6ebe f5ac 253e 991a 0e3e
00000040: 98a4 45be 1419 20be 51e4 da3d c1d7 1fbe
00000050: e339 d8bd 7503 063e e7e5 fabd f788 853e
00000060: a395 a53d ff9c 013e 4d41 8bba 8d39 2bbe
00000070: ab65 c03e 1380 3fbe 6b9e a63e af2e 903e
00000080: cbf3 583d 827b fabd 5fa2 133e 6d7c 8ebd
00000090: ba1c 52be d06d 3ebe c8e6 d1bd 91f8 19be
000000a0: 5d42 503e 0584 dabc 4361 3d3e 145b a0be
000000b0: 0e37 4a3d 4618 983e 9367 8dbe f766 17be
000000c0: 81bc 71be d602 7f3e 3866 163e cc38 9f3e
000000d0: 8801 e3bd 75b1 de3d c779 383e 442e 573e
000000e0: a5c6 93be 981c afbd 2910 13be 7124 143e
000000f0: a7c0 4abc 5267 aa3e 2d2d 773e 46ad 453e
00000100: c0a7 0abe ae93 253e eaf4 bfbd 1ff3 8b3e
00000110: 7e90 c53c f183 fd3c 049b 1f3e 564e 143e
00000120: d1a9 4c3e d039 6cbe 9290 deba 738c c93c
00000130: 547f 92be 338c 8d3e edaf 62be 68a8 02bc
00000140: 351b 6fbe 14d1 3f3e 3006 923e a04a 9fbe
00000150: 9d5a 1f3e 231c f73c a031 dbbc 814d 493d
00000160: 72b3 9c3e ca0a ebbd 7f3b 903e 1e9f 16bc
00000170: aba2 41bc 836b 4c3e d2e6 90be 7d0d e13d

bias f4 [3]
0.1612918 -0.10826508 -0.14960575
00000000: ad29 253e 15ba ddbd 4032 19be
