data/density_critic_models/level_0/generator.pth (torch, 349138 bytes, 8 tensors)

weight f4 [64, 3, 1, 1, 1]
00000000: 2088 fabe bfdd 7b3d 1caa b03e 1141 a93c
00000010: bb44 8ebe 5b7f 943e 3841 013f 1615 e7be
00000020: 33cc b03d 8adb 293e 663f ad3e d607 e23e
00000030: 8f5b 1cbf df2e bc3d ed91 85be 5117 c63e
00000040: 4b31 563e 9071 c73e 4350 ad3e 1c82 53be
00000050: cfc7 d6be 3e98 943c ee11 9cbd 110f 933e
00000060: 4f76 f53e 2145 babe 00a4 75be 3fb2 d3be
00000070: a0f6 d73d 840b fa3e d709 453e 7e53 47be
00000080: f188 e2be 34a2 e53e 91ba 98bd e2fb d43e
00000090: 4bea 0ebf 939c 23be 690b 883e 43f8 073e
000000a0: 85f7 12bf bbdf cd3e b384 fc3e 089b d03c
000000b0: 92d5 7ebc 41a1 a9be 8f47 fdbe c7ea 26bf
000000c0: 38fb 17bf 3a17 fd3e 66fe ef3e eb85 a43e
000000d0: c11b 0cbe 586c 53bc 5e30 b23e 1a9e 1cbe
000000e0: d931 ad3e a70b 41bb 37b2 0ebf ea6a 2c3f
000000f0: 92d6 adbe ccf3 283e 333e bd3e f6dc 49be
00000100: 5301 213f c4be 6b3e 1a98 19bf 04dc 00bf
00000110: 0d45 443e 058b 083f 0ff1 e5be 4953 aebd
00000120: 24d3 aebe 52bc a2bd dc0d edbe 928b ccbe
00000130: 2c9a 213f bdd2 e3be 6cbe 003f 0fd5 ef3d
00000140: bcf9 103e e182 d33e 9f7d 8ebe 7c16 b93e
00000150: 5c18 b63d 6dd7 733d 6da8 0d3f 8648 edbe
00000160: fed7 0dbf 035c 143c b90e 0ebd 7df8 a33e
00000170: ee43 0dbd 013f f33e 9911 f8be 9f90 07bf
00000180: 40b2 5d3e 35a6 693e 8b17 293e 8fa4 f4be
00000190: edd3 db3e caaa 1abf 60e1 053f 3b1c 123e
000001a0: e263 cdbe e241 f5bd 9a84 bdbe 5160 c03e
000001b0: e0d6 b9be d1a1 eb3e 793b 87be 415a e33e
000001c0: 41ba 083f 9a06 f53b d17e 11bf c76c be3e
000001d0: 67cd e8be d95e 1a3f f37e a03e bc63 9abd
000001e0: 2a20 613e a25f e03d 9f7d eb3e 901e 003f
000001f0: 3fa2 b13e 0ab0 13bd d05d fb3e 175d af3b
00000200: fcce 883e ec6c ffbe d963 dcbe f9ef 27be
00000210: 27c1 9dbd 8b30 323f 2973 73be 1e1e 093e
00000220: e360 8c3e 9ed9 9a3e d31f d53e 3e0b 13bf
00000230: e24d 6e3e aab6 d53e d78b d9be af4c 88bc
00000240: e5de 9dbe 5a7c 4cbd 425c 893c c4c0 c13e
00000250: 2dca df3e 4f55 56bb 8cd6 1c3f adae 47bc
00000260: 4329 11bf 0a4d 25bf b4d6 ecbe d030 3ebe
00000270: 10ee 3dbd 9179 cf3e 2e33 0abf 3bde 113f
00000280: f5e5 b2be 0429 993e 72a9 8b3e ff77 0f3e
00000290: 6685 33be 2f41 44be 1de7 723e 6077 86bd
000002a0: 594c c9be 20ee d43e 68a5 343f ef56 133f
000002b0: 4340 0bbf 00d2 25bf 4845 9c3c cea5 23bf
000002c0: 5d89 f43c e660 0bbf f03d 00bf b722 f3bd
000002d0: 26c0 29be 9f9f 2cbe 5269 a4bc 3f69 273e
000002e0: 8e32 723e b718 fb3e e0db a73d 2a64 acbe
000002f0: 14c7 b4be feaa c1bd 498f 0d3f 9c8a ddbe
-0.4893198 0.06149077 0.34504783 0.020660909 -0.27786812 0.29003415 0.5049014 -0.45133275
0.08632698 0.16587654 0.33837432 0.44146603 -0.6107721 0.091886275 -0.26087895 0.38689664
0.20917241 0.3895383 0.33850297 -0.20655102 -0.41949317 0.018139001 -0.07620607 0.28722432
0.47941825 -0.36380866 -0.23988342 -0.41346928 0.10545087 0.4883691 0.19242035 -0.19465443
-0.44245103 0.44850314 -0.0745746 0.4159842 -0.5582625 -0.15977697 0.26571205 0.13278298
-0.57408935 0.40209755 0.4931999 0.02546455 -0.015553849 -0.3313084 -0.49468657 -0.6520199
-0.59367704 0.49431783 0.46873778 0.3213342 -0.13682462 -0.012904249 0.34802526 -0.15294686
0.33827093 -0.0029456408 -0.55740684 0.6735064 -0.33952767 0.16499251 0.36961517 -0.19713196
0.62892646 0.2302199 -0.59997714 -0.5033572 0.19166966 0.53337127 -0.44910476 -0.08511979
-0.34145463 -0.079460755 -0.46299636 -0.39950234 0.6312587 -0.44496718 0.5029056 0.117105596
0.14157766 0.4131079 -0.27830216 0.36149967 0.08891365 0.059531618 0.5533512 -0.46344393
-0.554077 0.00905514 -0.03468201 0.3202552 -0.03448861 0.47509006 -0.48450926 -0.5295505
0.21650028 0.22817309 0.16512887 -0.47781798 0.42935124 -0.60416853 0.5229702 0.14268582
-0.40115267 -0.11975457 -0.3701523 0.37573484 -0.3629675 0.46021894 -0.26412562 0.44404796
0.534092 0.0074775936 -0.5683413 0.37192366 -0.4546921 0.60300976 0.31346855 -0.07538554
0.21984926 0.109557405 0.4599428 0.50046635 0.34694096 -0.036056556 0.4909501 0.0053516733
0.26720417 -0.49887788 -0.43044928 -0.16400136 -0.077028565 0.6960532 -0.23774399 0.13390395
0.2741767 0.30244154 0.41625842 -0.5743903 0.23271897 0.41740924 -0.42489502 -0.016638128
-0.30834118 -0.04992328 0.016767625 0.3784238 0.43708935 -0.0032704656 0.6126487 -0.012187642
-0.56703585 -0.6457068 -0.46257555 -0.18573308 -0.046369612 0.40522435 -0.53984344 0.5697972
-0.34941068 0.29914105 0.27277714 0.14010619 -0.17531356 -0.1916549 0.23720975 -0.06565738
-0.3931606 0.41587925 0.7056489 0.57554525 -0.5439493 -0.6477356 0.019076005 -0.6392487
0.029850656 -0.5444473 -0.5009451 -0.11871856 -0.16577205 -0.16857766 -0.020069752 0.16348742
0.23652098 0.49042293 0.08196235 -0.3367017 -0.35308135 -0.09456442 0.5529676 -0.43269813

bias f4 [64]
00000000: 9c37 aabe ef68 353f ad4a ae3e f2a1 603e
00000010: 5b70 adbe a4bd cf3d 200b e3be 52c6 08bf
00000020: ffa1 33be 631a ee3e 5891 f2bd ced1 6f3e
00000030: 6650 3d3e c06d 07bf bab9 113f c740 4abe
00000040: 0d84 db3d a80d 673e e3c1 dcbe adc5 9b3e
00000050: 91cf f6be b243 e4be 63f1 d13e 2059 1fbe
00000060: b99e b63e 2a64 40bd f87c 44be 0cf6 af3e
00000070: 046d 043f ac6f 04bf 12bb 113f 7ea8 bebd
00000080: 8fab 9f3e bd6a 133f a226 b43e d493 3ebd
00000090: bff1 e23e 54f9 343f 8f97 f23c 655e 173f
000000a0: 0362 d7be 5d41 b43e 6f8e 8f3a e065 36bd
000000b0: 5327 2e3e f78c a13e 50a9 12bf a4ac 04bf
000000c0: 59a2 dfbe 94e2 bebe a3dc e9be 6b3e 813e
000000d0: b53e 163f 6cd5 0fbf 5455 cabe 749c cebd
000000e0: 141a 183e cab0 843d 573a 85be 481d 4b3e
000000f0: df58 db3e c5d6 cebe a171 1c3f 2f72 9dbd
-0.33245552 0.7086324 0.34041348 0.21936777 -0.33874783 0.10143593 -0.44344425 -0.5342761
-0.17542265 0.46504506 -0.11844128 0.23419878 0.18487701 -0.5290184 0.5692402 -0.19751273
0.10718546 0.22563803 -0.43116674 0.30424252 -0.48205236 -0.44582897 0.41004476 -0.15561342
0.3566797 -0.046970524 -0.19188297 0.34367406 0.51728845 -0.517329 0.5692607 -0.09309481
0.31185576 0.57584745 0.35185724 -0.0465277 0.44325063 0.70692945 0.029613284 0.5912841
-0.42066965 0.35206118 0.0010952483 -0.04453075 0.17007188 0.3155286 -0.572896 -0.5182593
-0.4367855 -0.3728224 -0.45676145 0.25242934 0.58689433 -0.5618503 -0.39518225 -0.10088435
0.14853698 0.06479032 -0.26021072 0.19835389 0.4284124 -0.4039823 0.61110884 -0.076877944

weight f4 [32, 65, 3, 3, 3]
00000000: 974b 283c adf8 be3c 27e8 deba afa5 873c
00000010: 85d9 42bc c30a c1bb d659 e7bb 39fa 67bc
00000020: 5095 d1bc 393a 613c e362 083c f2f7 793c
00000030: 8f1b 82bc 9bb6 d5bc 577d eebc a0e3 a9bb
00000040: e2c8 003b fdde ebbc 3534 243a 9f70 6a3c
00000050: 8e8e 52bc 3567 ca3c d746 0abc 7a22 2e3b
00000060: 52fd c23c a7c6 433b afc5 b5bc b238 fe3b
00000070: cb98 e63a e4f3 b43c 77b4 37bb 82ab 893c
00000080: ccfe fdbb 52ec 7cbb a833 6d3b 9c5b b43b
00000090: 892f 12bc 58c2 25bc 6268 8c3c 0fa5 083d
000000a0: 8998 00bd bdf6 e8bc 430c c43c 3816 adba
000000b0: 30c9 8d3b 5fdf 043d b779 68bc 1ab8 d33b
000000c0: afa4 783c 598b 2bbc 19e4 c2bb 86a2 073d
000000d0: 36e1 de3a e0ea aabc 90cd b3bc 19cb 68bb
000000e0: f47a b03c 9349 fc3b 08f0 323c 52de 9f3c
000000f0: 2edf 3a3b ef76 5a3a a4a9 8d3c 838c 12bc
00000100: 9af7 083c 7c6c cc3c 78f7 093c 6ef7 2ebc
00000110: 6581 c43c 201a 1a3c 73cd 133d 653b b23c
00000120: c1db 123d a76f 68bc b340 dc3c c700 6a3c
00000130: e1c9 35bd 9386 64bb 5f13 023c 01ba 71ba
00000140: c0d2 8d3b 4e21 ee3b 0059 eb3c 452f 013d
00000150: 773f 403c c29f 2a3c a8c3 7f3c 7aa0 e2ba
00000160: 0646 103c 8c48 1a38 ffc6 5c3b 5087 243d
00000170: ed1c 44bc 0e1e 573c d1bc 363c 10b0 d1bc
00000180: e79a 91ba cec9 98bc d519 2bbd b479 a83b
00000190: 959a 113d 0c3d f0bb 576e 093d 1c6f a93c
000001a0: 0951 d3bc c08a 77bb 0e7b 65bc 4df2 76bd
000001b0: 6ae1 3fbb a19b 75bb 19c1 573c a5ea f5bb
000001c0: 5122 9abc 8d10 b4bc c097 07bc 3b14 f6bc
000001d0: 559e 4fbc a738 203c 14db 96bc 87ed 5cbc
000001e0: 8428 1dbb 7324 afbb 62a0 b33c 4700 1bbd
000001f0: 7402 35bc 1fd5 383c d454 02bc 35e8 28bb
00000200: 614e 8fbb 50fa 5fbc 3106 9f3c 9045 e23a
00000210: 397a 073c 3e9b c23c e5de f23b 0334 6c3b
00000220: 0504 2cbc 12a9 fdbb 6e13 753c 074b 29bb
00000230: 91f9 81bc 05d4 38bc 5ad9 e83c c47f f63b
00000240: 2d23 b73c 213e 163d c53b 46bc 3144 2c3d
00000250: 7cfc 3c3d d07a 88bc 7232 733c ea3e 72bc
00000260: a310 48bd 59ec 74bc da0b 6e3c 5925 c4bb
00000270: 4ca6 30bb c87e b7bc ca9e 20bd 0722 b9bc
00000280: bf38 cabc 2771 4abd 92c9 903b 68ca 0cbd
00000290: 3633 d3bc 1e60 b2bc ba9d 6fbc 9c4d 653c
000002a0: c3bc 553c a585 953c 7e08 a33c ac5e 923c
000002b0: aff8 56bc 8827 743c 9ec6 d03b b54f 4cbc
000002c0: ee5b 0f3d db3a 033c 94a0 cb3c fe3c 263d
000002d0: 3e90 ca3c 5889 98bc 229a b73b 98c2 07bd
000002e0: 0bfd d3bc 13f3 87bb ef6f b1bc 2efe 8a3b
000002f0: 4e69 943c 99b5 173c b724 37bc 7fc1 303d
00000300: c80f 5e3c 490b 223b bf55 bc3c e94d c0bb
00000310: 8c8e 123c 196a 7c3b 2d6e a43c bc81 2f3c
00000320: 556f 833c bf1f ff3c 2b30 71bc e3da a0bc
00000330: cb87 413c 08f4 8d39 217d dbbc 6ae8 94bc
00000340: 278f 9b3b 3dbc abbc 33c8 513c 85aa 503b
00000350: 741d 49bc 6622 f9bb 643d 9c3b aa9b 1abd
00000360: e457 ddbc 6e30 b0bb 42fc ab3b b77e f8bb
00000370: 39bd 9a3b 5f05 69bc 6157 abbb 30a3 733b
00000380: 8c15 a73b ce71 413c 1c9d ac3a 5dce b3bb
00000390: ffc0 6fbc bfd2 023c ddd5 e639 e11c 4bba
000003a0: 027c 1b3b 100e 443d 373d fb3b 68e2 cbbc
000003b0: d11e 68bc 41d2 f23a 7a26 ddbb e0ce 37bc
000003c0: 741c 583c a737 a2bc fb58 843c cf47 013c
000003d0: f654 153c 5264 053d a90f 923c 26e5 87bc
000003e0: f730 673c a527 c53c b56d a5bc 5f62 253c
000003f0: 9b35 713c c1b3 6cbc bcdf 6a3c 3c83 153c
0.010271928 0.023311937 -0.0017006443 0.016558496 -0.011892681 -0.0058911755 -0.00706027 -0.014158779
-0.025583893 0.0137467915 0.008324358 0.015256869 -0.015882282 -0.02608805 -0.029112501 -0.0051846057
0.0019650985 -0.028792853 0.0006263883 0.0143090775 -0.0128513705 0.024707416 -0.008439741 0.0026570843
0.023802433 0.0029873045 -0.02218899 0.0077582235 0.0017593143 0.022088952 -0.002803115 0.016805414
-0.0077513214 -0.0038593006 0.003619412 0.0055040848 -0.008922466 -0.010117136 0.017139617 0.033360537
-0.03139547 -0.028437966 0.023931628 -0.0013205474 0.004326962 0.032439586 -0.014189175 0.0064611556
0.015175982 -0.010470235 -0.0059476015 0.03311398 0.0017004374 -0.02086395 -0.021948606 -0.0035521446
0.021543004 0.0076992004 0.010921486 0.01951519 0.0028514373 0.00083337625 0.017292805 -0.008944633
0.008359814 0.024954073 0.008420818 -0.010679109 0.023987481 0.009405643 0.036084604 0.021756837
0.035854105 -0.014186776 0.02688632 0.014282412 -0.04438198 -0.0034870252 0.007939189 -0.0009221137
0.004328102 0.007267154 0.028728962 0.03153922 0.011733881 0.010414066 0.015610613 -0.0017290257
0.008805757 3.6784026e-05 0.0033687947 0.040168107 -0.011969787 0.013129724 0.011153416 -0.025596648
-0.0011108787 -0.018650915 -0.041772682 0.0051414613 0.03554781 -0.007331496 0.033552494 0.020682864
-0.025795477 -0.003777191 -0.014006389 -0.06028967 -0.0029278644 -0.0037476795 0.013168597 -0.0075047784
-0.018815191 -0.021980548 -0.008275926 -0.030038944 -0.012672027 0.009779132 -0.018415011 -0.013484365
-0.0023980448 -0.0053449213 0.021927062 -0.03784206 -0.011047948 0.011281281 -0.007954795 -0.0025773172
-0.004373357 -0.013670519 0.019412132 0.0017263163 0.008268886 0.023755666 0.007411825 0.0036041744
-0.010499005 -0.007741102 0.014958246 -0.0025832073 -0.015866073 -0.011281018 0.028423954 0.007522555
0.02235564 0.036680344 -0.012099211 0.04205722 0.046139225 -0.016660124 0.01484357 -0.014785508
-0.04884399 -0.014948928 0.014529193 -0.0059858975 -0.002695459 -0.022399321 -0.039213933 -0.022599233
-0.024685262 -0.049424317 0.0044185603 -0.034372717 -0.025781255 -0.021774348 -0.014625007 0.013995554
0.013045493 0.018252203 0.01990151 0.017867409 -0.013120814 0.014902003 0.0063713333 -0.0124701755
0.03499978 0.008009638 0.024856843 0.04058551 0.024726983 -0.018620178 0.005603091 -0.033144563
-0.025877496 -0.0041488498 -0.02165982 0.0042417264 0.01811662 0.009259605 -0.011178187 0.043153282
0.013553567 0.0024725965 0.022990106 -0.0058686626 0.008945119 0.0038515388 0.020072067 0.010712083
0.016044298 0.031143067 -0.014720957 -0.019635623 0.011812161 0.00027075433 -0.026793065 -0.01817723
0.0047472897 -0.020963782 0.012804079 0.0031839919 -0.012275089 -0.0076029776 0.0047680605 -0.03774611
-0.027019449 -0.005376867 0.0052485773 -0.007583465 0.004722264 -0.014222472 -0.0052289222 0.0037176125
0.005099004 0.011806918 0.0013169381 -0.005487247 -0.014633416 0.007984816 0.0004402836 -0.0007748139
0.0023725037 0.047864974 0.0076672095 -0.024888232 -0.014167503 0.0018525795 -0.0067489715 -0.011218756
0.0131903775 -0.019801928 0.01615571 0.007890656 0.009114495 0.032566376 0.017829733 -0.016588759
0.014110795 0.024066756 -0.020193914 0.010094254 0.014722253 -0.014447154 0.014335569 0.009125527

bias f4 [32]
00000000: 7e2d 833c e759 48bd 3a0d 113d 4a4e d93c
00000010: 586c 823c e662 bbbb 9ca9 673c d36a 6e3d
00000020: da39 c13d 06f0 bcbc 5be0 253d 28ba 293d
00000030: da05 893d 0fbd 83bc 4a9c 4abd eb0e a6bc
00000040: ec11 c93d 3940 63bc e681 723d 6c45 6d3a
00000050: 6f27 603d 7187 e93b 42a9 8d3d aae8 4f3c
00000060: 538c 903d 4cc2 bc3d 1d11 7c3b 9429 343b
00000070: 0ebe 28bc 0281 f53d f894 553d 12b4 d33c
0.016012903 -0.048913863 0.035413004 0.026526589 0.015920803 -0.0057185767 0.014139559 0.058207344
0.094348624 -0.02306367 0.040497165 0.041437298 0.06690569 -0.016081361 -0.049465455 -0.020270785
0.098178715 -0.013870292 0.059205912 0.0009051177 0.054725107 0.0071267416 0.06917049 0.012689749
0.07058015 0.09216747 0.0038462349 0.0027490603 -0.010299219 0.11987497 0.05214402 0.0258427

weight f4 [32, 33, 3, 3, 3]
00000000: 8c07 5ebc e53b e5bc 36df 0c3d 9775 78bd
00000010: abaa 80bd 059e be3b c4e4 e73c 78f4 413c
00000020: b5e7 793c 4da2 b8bc 88e3 9fbd 6609 00bd
00000030: f792 c339 6351 cebc 2fe5 e83b 4e48 3e3d
00000040: 9e75 8d3c 01f3 723d af1f b43d 57e3 093c
00000050: fa2b 3d3c 6d5a a23d 1d64 eb3b d72f 683d
00000060: 10e3 913d c79b e53d 1b84 cf3d 2ca3 b03c
00000070: 4c15 333c c878 d9bb 58aa 023c a7c2 bd3b
00000080: c689 233d 0c28 df3b 44ee bbbc d091 fcbb
00000090: 54b1 9dbc b3a8 9a3c 1f0f 9f3b 5d60 ac3b
000000a0: 088f 49b9 ac4f fb3c a444 aabc f769 463c
000000b0: 62b2 b9bc f7fa 0f3d 4760 1a3d 7743 933d
000000c0: f267 223d 681f 0c3c cbb3 023d 4bc6 043d
000000d0: b0a1 763c 20fb 3ebc 6136 183d ec28 163d
000000e0: fb3b 463c 23be 00bc 15c6 d13c f948 f63c
000000f0: 752c bc3c e9dd 633c 2dca 8f3c 9913 47bb
00000100: bef5 003d cffb 34bb f653 d73b d854 723b
00000110: db47 de3c 7199 ad3c 5345 1fbd cbaf 103c
00000120: 0410 203d 8b43 7d3c c79c f63c cb61 3e3d
00000130: e438 ba3b b8da fe3c 46aa 2e3d 2038 85bc
00000140: bc2f 613c 4268 2abd 8d39 263c a1c8 06bd
00000150: c726 613c a7bd 1abd cf88 1abd 34b1 0fbd
00000160: 1136 f7bb ef3b 003d e462 cabc 78cb a5bc
00000170: ebe2 24bd 9a42 513b aedf b73c d4c6 dfbb
00000180: 0688 c93c d504 58bb 7b73 a73c bba4 b0bc
00000190: f693 33bd 33ba 96bb 337c 593c 9abe 95bc
000001a0: eb81 13bd fe14 553c a7fa 3fbc 00c6 853c
000001b0: b138 b93c 87e6 e03b dfbe 923c fa50 633b
000001c0: 17a4 83bc 3e74 0f3d e614 10bd 704f 40bc
000001d0: 8b53 c33c 04a9 983c cdc2 1b3d 95e3 20bc
000001e0: 8cba 563b c6fa c8bc f097 6d3c 1f7d e7bb
000001f0: 69aa 42bc 60a9 c2bb dfc3 fe3c 8810 c23c
00000200: b08b 1dbc e35c cabb d113 383d 3726 e73c
00000210: f80f 3c3c 3be2 a53b d169 2dbc 356a 97bc
00000220: 74b7 1ebb 9af4 013c c02a 503c 147b 30bd
00000230: 48e4 f7ba b5db 5c3b 9550 0b3d ec3a 403c
00000240: 917f a6bc 503b e73c daab 4b3d 0433 e1bc
00000250: 5a0c ffbb 7465 a53c 207b 6d3b d44e 123c
00000260: 7745 193d 0057 46bc 7703 203d b260 303d
00000270: e7b6 24bd 626e d33b a4bd a53b faa6 04bd
00000280: 912e c3bc 81fe f93c 2cc9 febc 2cf0 5cbc
00000290: 8c89 19bd 595c 5cbd d107 eebc aa6e 62bc
000002a0: e5b4 6fbc 1a4f 89bd 1123 2cbc 649b e73c
000002b0: 5616 36bd 721e 68bc f271 023d 75af 663b
000002c0: 5a40 05bc a962 8b3c 2807 b73a e458 02bb
000002d0: dded f23b 1d74 42bd 9e47 06bd a6f9 aa3c
000002e0: 4dbf 913c 1427 1abd 15fe eebc dff5 70bc
000002f0: 322a bb3c 4fbc 9fbc e978 ec3c 77d6 203d
00000300: ab35 b63c e219 af3b 8f82 683c 55f0 c73c
00000310: 2493 333d 65f3 16bc f83c 98bc 5521 cc3c
00000320: 92e4 ea3c 33ce 1a3c 19cb 493d 2c09 163d
00000330: 15c1 0fbc f8fe 333d b5a2 343c a84a 0dbd
00000340: 42fa 2c3d fc60 223d bd22 9e3a 10c9 b53c
00000350: 3a2e 93bc 4909 c6bc c5c4 ed3c 8474 9abc
00000360: 9045 853c 424a 7cbc 5cc7 6f3c 761e 6a3c
00000370: db91 9bbb 3e69 bc3b 4b5b 7a3c 3cd2 fb3b
00000380: e3bc e5bc 7213 bf3c 335a 073c 6cca d8ba
00000390: bdbf 983c 81bf 043d 6ed2 51bc e654 21bd
000003a0: fe0c 4fbc 7614 0c3d 0047 3cbd 986a 133c
000003b0: acc4 1dbd 382e 00bc b63b b8bb b291 673a
000003c0: 507a 37bd 7c83 5ebd 8cb0 b9bc 3d6b d13c
000003d0: c78b 893c 199f 503d 2f84 833d 906f 9e3d
000003e0: fb18 b43c f420 213d 7cbe 333c 425a 2a3d
000003f0: b7a9 04bd b989 003d bc44 3a3d 7a79 923b
-0.013551604 -0.027982662 0.034392558 -0.060659017 -0.06282552 0.0058171772 0.028307326 0.011838071
0.015252997 -0.022538329 -0.0780707 -0.031258963 0.00037302796 -0.025185293 0.007107399 0.046455674
0.017267998 0.059313778 0.08795106 0.008416018 0.011546129 0.079274036 0.0071835653 0.05668625
0.07123387 0.11211353 0.10132619 0.021562181 0.010930371 -0.0066367127 0.007975183 0.0057910266
0.039926313 0.006810194 -0.022940762 -0.007707812 -0.019249596 0.01887927 0.0048540975 0.005260511
-0.00019222137 0.030677639 -0.020784684 0.012110225 -0.022668067 0.035151448 0.037689473 0.07190602
0.03964991 0.00855241 0.031909745 0.03241567 0.015053198 -0.011656553 0.037161235 0.03666012
0.012099261 -0.007857832 0.025607148 0.030064093 0.022970418 0.013907888 0.01755246 -0.0030376671
0.031484358 -0.002761591 0.006571288 0.003697684 0.027133873 0.02119133 -0.038884472 0.008830975
0.039077774 0.015457998 0.030104054 0.04647998 0.0056830514 0.031110153 0.042642854 -0.016262114
0.013744291 -0.041603334 0.010145557 -0.03290618 0.013742155 -0.037778523 -0.037728127 -0.035081103
-0.007544287 0.031307157 -0.024705358 -0.020238623 -0.04025547 0.0031930567 0.022445526 -0.006829122
0.024600994 -0.0032961864 0.020440808 -0.021562925 -0.04384228 -0.0045998334 0.01327424 -0.018279362
-0.03601257 0.013005493 -0.011717475 0.016329765 0.02261004 0.0068634185 0.01791328 0.0034685717
-0.016069455 0.035022967 -0.03517618 -0.011737689 0.023843547 0.01863528 0.038027573 -0.009819885
0.0032765 -0.02453364 0.014501557 -0.007064476 -0.011881449 -0.005940601 0.031099258 0.023689523
-0.009615824 -0.0061756237 0.044940773 0.028216464 0.011478417 0.005062369 -0.010584311 -0.01848326
-0.0024218233 0.007931853 0.012705505 -0.043086126 -0.0018912638 0.0033700292 0.034012396 0.011732798
-0.0203245 0.028226525 0.049724437 -0.027490146 -0.007783455 0.020189978 0.0036236718 0.008929927
0.037419762 -0.012105703 0.039065804 0.043060966 -0.04021349 0.0064523676 0.0050580073 -0.032385804
-0.023825916 0.030516865 -0.031101786 -0.013484996 -0.03748469 -0.053799007 -0.029056462 -0.01382033
-0.014630531 -0.067045406 -0.010506407 0.028272338 -0.044454895 -0.014167415 0.031846948 0.0035199795
-0.008133018 0.017014818 0.0013963925 -0.0019889409 0.0074136094 -0.047474016 -0.032783143 0.020870995
0.017791415 -0.037634924 -0.02917389 -0.014707058 0.022847269 -0.019498972 0.028866248 0.03926703
0.022242388 0.0053436616 0.014191284 0.024406591 0.043841496 -0.009213303 -0.01858376 0.024918238
0.028673444 0.009448576 0.049265955 0.03662984 -0.008774062 0.04394433 0.0110251205 -0.034495026
0.042230852 0.039643273 0.0012064796 0.0221906 -0.017966378 -0.02417435 0.029024491 -0.018854387
0.016268522 -0.015398564 0.014634933 0.014289489 -0.004747612 0.0057498505 0.015280555 0.007684974
-0.02804417 0.023324702 0.008261251 -0.0016539819 0.018646115 0.032409195 -0.012806518 -0.039387606
-0.012637375 0.0341992 -0.04596615 0.008997582 -0.03851764 -0.007823519 -0.0056223525 0.0008833661
-0.04479438 -0.054324612 -0.022667192 0.02556383 0.016790284 0.050932977 0.064216964 0.077361226
0.021984568 0.039338067 0.010970708 0.041589983 -0.032388415 0.031381343 0.045475706 0.0044700475

bias f4 [32]
00000000: 55a4 20bd 6f5b 0c3d d8d7 1dbc e6e4 2e3d
00000010: 36fa e23b 67bc db3c d8dc 593d 0a0f 623d
00000020: c8f9 323d cc19 233b 83a9 8ebc 3034 8339
00000030: cc38 3cbd db1e 123c 029b 75bb 40af 05bd
00000040: 6ebe 5dbb 9fa5 5e3a 435e 14bc 9b93 b8bb
00000050: ce7c 44bd fc67 9e3c 1701 fb3b 303d 8f3d
00000060: 72cd 0cbd e3db 1c3c 4075 133d 7d9d 013c
00000070: 3b0d c23c d8ac 433d 762d abbc ddee debc
-0.03921922 0.034266885 -0.009633981 0.042698763 0.0069268 0.026823236 0.05318913 0.055190124
0.04369524 0.0024887202 -0.017414814 0.0002502515 -0.045952603 0.008918489 -0.0037476425 -0.032637835
-0.0033835429 0.00084933074 -0.009055677 -0.0056328303 -0.047970586 0.019336693 0.007660042 0.069940925
-0.034375615 0.009573909 0.03600049 0.007911083 0.02368795 0.04777226 -0.0208957 -0.027213508

weight f4 [3, 32, 1, 1, 1]
00000000: 87cf 0cbf eb85 5d3e d644 533c e848 723e
00000010: ed56 b23e 3e8f 3cbd bea0 cfbd 25f3 a3be
00000020: e911 a63d fc2e 57bc 6bbd 183e 24df 98bd
00000030: d5a6 02be 9802 243e c312 d8bd 8dce 04be
00000040: 8b9f a0bd 639d 283d 99be de3e 51c7 4a3d
00000050: c134 0abf f551 37be bdca 83be 8742 743e
00000060: 50fc 473d 146d 823e 4579 ea3d b40c 64bd
00000070: c5c7 423c 4ace 3abe 47a8 603e 5073 80be
00000080: 69ab 193e 1c5f ac3e 06ad 273e 27ab 9b3d
00000090: d671 0d3f 843d 8f3e 5f54 e5bc 34fb 733d
000000a0: 7152 3a3e 9bb9 283e 8a8b fcbd d480 9c3e
000000b0: 5713 4f3d 7b7a 22bd 5bc3 353e 0952 33be
000000c0: 37b2 bebc 4df1 1ebe 82fd 2b3d 5ab7 febd
000000d0: 74e3 8a3e 5896 053e e7d3 8ebe f6a3 0e3e
000000e0: d163 83be 4f4a 18bf a78a 87bc 623f 38be
000000f0: 99e7 9dbe dc50 0f3e 43a3 d23c cf1b cf3d
00000100: 63fc a13e 67c7 553e 6c17 e3bd e37b 49be
00000110: 2679 cbbe 0fb8 3cbe bc6b 1c3e 7df5 a63d
00000120: 7241 8bbd eef2 72be 4b53 a03d cb30 93bd
00000130: a81f a2be a093 463d 030e d2ba 8cb2 afbd
00000140: 5cae 5dbe fca5 ca3d 696d ad3e 94a3 92be
00000150: f5c7 15bf e721 843d 62bb 7ebd 0e6a 353e
00000160: 9c17 18be b86e 04bf 250c 323e b714 a4bd
00000170: 7958 243f bb3e 713e 6e61 c2bd 11c5 05be
-0.5500416 0.21633117 0.01289483 0.23660624 0.34831944 -0.046035044 -0.10138081 -0.32021442
0.08108885 -0.013133761 0.14916007 -0.07464436 -0.12758954 0.16016614 -0.105504535 -0.12969418
-0.078429304 0.04116572 0.4350479 0.04950649 -0.53986746 -0.17902358 -0.25740615 0.23853503
0.04882461 0.25473845 0.114489116 -0.055676177 0.011888449 -0.18242756 0.21939193 -0.25087976
0.15006794 0.33666313 0.16374597 0.07601004 0.55251825 0.2797662 -0.027994333 0.059565738
0.18195511 0.16477053 -0.123313025 0.30567038 0.050555553 -0.039667588 0.17750303 -0.17511763
-0.023278339 -0.15521736 0.04198981 -0.12437315 0.27126658 0.13045633 -0.27896044 0.13929734
-0.2566209 -0.59488386 -0.016545607 -0.17992929 -0.30840757 0.13995689 0.025712615 0.10112726
0.31637868 0.20876847 -0.11088452 -0.19676165 -0.39740866 -0.18429588 0.15275472 0.08152292
-0.06799592 -0.23725483 0.07828387 -0.07187041 -0.31664777 0.04848063 -0.0016025904 -0.08578977
-0.21648544 0.0989494 0.33872536 -0.28640425 -0.58508235 0.06451779 -0.06219042 0.17716238
-0.14852756 -0.51731443 0.17387445 -0.080117635 0.641975 0.23559086 -0.094912395 -0.13063456

bias f4 [3]
00000000: 0ed1 a53d f779 5dbd aa43 44bd
0.08096515 -0.054071393 -0.047916092
