data/density_critic_models/level_1/generator.pth (torch, 349138 bytes, 8 tensors)

weight f4 [64, 3, 1, 1, 1]
000000 e1 c0 bd 3e 0c 17 f4 be 38 ce ad 3e f0 d8 fc be
       0.37061217 -0.47673833 0.33946395 -0.4938426
000010 87 5b fa ba 79 13 0c 3f 31 05 18 bf 41 37 23 3f
       -0.0019100764 0.5471721 -0.5938292 0.63756186
000020 5e 90 8c 3e c7 fa 03 be 64 1a 8b bd e4 f1 b5 be
       0.27453893 -0.12888633 -0.06792143 -0.3553611
000030 dd 93 00 bf a8 d6 ad 3d 43 40 d0 3e 40 f1 04 3e
       -0.5022562 0.08488208 0.40674028 0.12982655
000040 3d 64 64 bd af d4 1c bf be 89 fc 3d 8e 84 6d 3d
       -0.055759657 -0.6126203 0.1233096 0.057987742
000050 a4 f5 21 3e a5 87 d2 3d b8 90 68 3d 08 a2 0e 3f
       0.1581636 0.102797784 0.05677864 0.5571599
000060 a4 02 13 3f 0e 74 ee 3e 3d 30 82 3d 92 3f 52 3e
       0.57425904 0.46572918 0.06356857 0.20532063
000070 05 42 9a 3e b1 7f 4e 3e 43 80 85 be 04 ab 47 be
       0.30128494 0.20165898 -0.26074418 -0.19498831
000080 63 de c4 3e be 02 06 3f c0 6e 17 3f 8f 78 d8 be
       0.38450918 0.52347934 0.59153366 -0.4227948
000090 f3 a6 95 3e 31 dc 90 bd a5 6a 35 3f ad c9 16 3f
       0.29228935 -0.07073248 0.7086585 0.5890148
0000a0 6a 93 85 be fb 8f 40 be e1 e1 08 be ba ae 99 3e
       -0.2608903 -0.18804924 -0.13367416 0.30016118
0000b0 47 c0 c9 be cc 62 de bd bb e7 e6 be b9 8e ea 3e
       -0.39404508 -0.10858688 -0.4509867 0.45812014
0000c0 52 91 84 3e 08 17 1c 3e 2a 4e 95 3e a9 1c 08 3d
       0.2589212 0.1524316 0.29161197 0.033230457
0000d0 f2 73 a4 3a ab ca 47 bd d4 60 87 3e d9 25 19 3f
       0.0012546761 -0.048777264 0.26441061 0.59823376
0000e0 45 93 ec 3e 58 a4 62 3d 82 24 b0 3d 06 bf 0d 3f
       0.46206108 0.05533251 0.08600713 0.55369604
0000f0 35 b6 13 3f cb 2c eb bc bf be 82 be 4b d5 32 be
       0.576999 -0.028707882 -0.25536153 -0.17464177
000100 e9 f6 2e 3f 4c 29 81 3e fd 69 0c bf e6 fc 0b be
       0.68345505 0.2522682 -0.54849225 -0.13670692
000110 de f4 18 be 88 15 11 3f 55 e0 d8 be c6 88 d3 3c
       -0.1493716 0.5667348 -0.42358652 0.025822055
000120 87 d5 b4 3e f9 7e 95 3e 4d 71 07 be c1 6a ad 3d
       0.35319158 0.29198435 -0.13226815 0.08467627
000130 2d c0 dc 3e d6 2a ed be 2d 18 c7 be 1d 3f c8 3d
       0.43115368 -0.46321744 -0.38885632 0.09777663
000140 d5 68 1d bf 49 b6 8e be ac 08 da 3e 14 6c 55 3c
       -0.61488086 -0.27873448 0.4258474 0.013026256
000150 2e ab 5c be 56 b9 01 bf 9f e4 c0 be 8a 3b c4 3c
       -0.21549675 -0.50673425 -0.37674424 0.023954172
000160 72 67 30 be af 30 b0 be 4e 2b 08 bf 86 ee ff 3d
       -0.17226961 -0.34412143 -0.5319108 0.124966666
000170 68 eb 0d 3d 9d 60 fc be cc 74 b1 bd 0a 09 f9 3d
       0.03464833 -0.4929246 -0.08664855 0.12159927
000180 3a 34 de 3e 4e 6a b7 3e 13 21 0a bf d3 02 a8 be
       0.4339922 0.35823292 -0.5395672 -0.32814655
000190 cd 67 27 3f 7b c9 19 3f 8b 18 12 bd c4 e5 0f bf
       0.6539276 0.6007306 -0.035667937 -0.5620997
0001a0 9a bb 97 3d fe a8 17 be 04 4f 89 be 17 57 88 bd
       0.07408829 -0.14810559 -0.26818097 -0.06657236
0001b0 29 d3 7a bc 69 af 1d bf d5 76 01 bf 22 3b 2a bf
       -0.015309134 -0.6159578 -0.5057195 -0.6649648
0001c0 e8 67 1a bf 61 85 11 bf ca 56 11 3f bf 12 fd be
       -0.603148 -0.56844145 0.56773055 -0.49428365
0001d0 ba 6e d8 be 9b 14 fe bd ba b5 c8 3c d3 e2 7e be
       -0.42271978 -0.12406274 0.024500716 -0.24891214
0001e0 38 d7 2a 3f 08 4e 87 3d 85 72 88 3d de a8 65 be
       0.6673465 0.0660668 0.06662468 -0.22427699
0001f0 17 a0 e2 3e dc c5 49 3e ec b9 e6 be f1 4b 75 3e
       0.44262764 0.19704384 -0.45063722 0.2395475
000200 d9 a3 95 3e 09 25 bb 3d c4 39 02 3e 24 e8 ef 3e
       0.29226568 0.09137923 0.12717348 0.46856797
000210 55 24 b0 3e d0 42 08 bf 12 7a 04 be 95 56 b9 3e
       0.3440272 -0.5322695 -0.12937191 0.3619887
000220 a3 18 f5 be 41 db bb be f0 4e 50 3d a4 f9 e7 be
       -0.4787036 -0.36690715 0.05085653 -0.45307648
000230 2d a4 f2 be c5 66 a4 3e 2b 0e 3e be d4 f1 d4 bd
       -0.4739088 0.32109657 -0.18560092 -0.103976876
000240 2c 2b 2f be 31 26 f3 3d a7 93 08 3f a6 a2 0c bf
       -0.17106313 0.11872519 0.533503 -0.5493568
000250 0e 7a 47 3e fd dd ee 3c 51 d0 66 be 26 a0 be 3d
       0.19480154 0.029158587 -0.22540404 0.0930789
000260 37 0a e3 3d 9f 51 20 be e7 5a c6 3e b7 78 47 be
       0.11085933 -0.15656136 0.38741228 -0.19479643
000270 29 4c 49 3e 43 0e dd be 25 81 5f bd 81 44 d2 3e
       0.19657959 -0.43174943 -0.05456652 0.4106789
000280 fc b3 23 3f ec 35 15 bf a4 28 08 3f e6 e6 6a 3e
       0.6394651 -0.58285403 0.5318701 0.22939643
000290 12 f2 a2 3e e8 48 c5 3c c0 ef 20 3f 40 d7 1e 3f
       0.3182531 0.024082616 0.6286583 0.62047195
0002a0 e2 d2 b8 3e ab cb 23 bf 64 92 d6 3e c6 d3 29 be
       0.3609839 -0.6398265 0.41908562 -0.16584691
0002b0 99 a7 ed 3e 5a f9 38 bd 19 2c e0 bd 66 dd 18 be
       0.4641693 -0.045159675 -0.10945911 -0.14928207
0002c0 ab 1d 24 bf a5 ac f2 3e 39 f4 a0 3c de 50 05 bf
       -0.6410777 0.47397342 0.019647704 -0.5207652
0002d0 e7 e1 86 be 7b 79 6d 3e 57 02 2e bf df 43 f4 3e
       -0.26344225 0.23190872 -0.6797232 0.47708032
0002e0 22 cf 25 bf 1b 6f c4 be 68 d0 d3 be 8a a0 1e 3f
       -0.64769185 -0.38366017 -0.4136994 0.61963713
0002f0 2b 65 a9 bd 8c a4 ab 3e 00 c2 9a 3e bb 5b 13 bf
       -0.082712494 0.33523977 0.30226135 -0.57561845

bias f4 [64]
000000 82 b7 73 be 26 85 6e be b2 4d 00 3f d9 ea 08 bf
       -0.23800471 -0.2329298 0.50118554 -0.5348335
000010 19 2e 18 bf d3 52 a9 3e b4 df b6 be f0 e4 9e 3e
       -0.5944534 0.33071002 -0.35717547 0.3103404
000020 9a eb 73 3e 7f ee 14 bf 2e 9b 07 bf d2 97 fc 3d
       0.23820344 -0.58176416 -0.5297116 0.12333645
000030 b8 02 a7 be 54 0b 10 3f 17 33 a3 3e b7 20 e3 3e
       -0.32619262 0.56267285 0.31874916 0.44360897
000040 37 c3 0e bf 2a e2 c1 3e 55 c5 38 3e f2 d3 18 bf
       -0.55766624 0.37867862 0.18044026 -0.596984
000050 7a 72 1e 3f 5d a2 cd 3c 9d 87 13 3f 59 36 1a 3f
       0.6189343 0.025101835 0.57628804 0.6023918
000060 0b 3c 29 3f 1c b9 b1 be fa b7 4d 3e be 64 e3 be
       0.66107243 -0.3471154 0.20089713 -0.44412798
000070 93 5f 00 3f 8f 84 d3 be fd 88 1a 3e 02 fa 8c 3e
       0.50145835 -0.41312072 0.1509132 0.2753449
000080 a3 df ab be 8a 37 b3 be d8 18 20 bf 61 39 aa 3e
       -0.3356906 -0.3500331 -0.6253791 0.33246902
000090 61 c9 b9 3e 19 5e 19 3f 8e 62 8d 3e 39 6a df 3e
       0.36286452 0.59909207 0.27614254 0.4363573
0000a0 24 cb 00 be 1a c5 21 bf 7c f0 25 3f 53 54 d8 3e
       -0.12577492 -0.6319138 0.64820075 0.42251834
0000b0 55 ea 0a 3f 4e 30 32 3f 79 f4 ac 3e ad 98 31 3d
       0.5426381 0.6960496 0.33780268 0.043358494
0000c0 c2 2f 1e 3f 5f 0e 5b bd 50 4b 94 be d2 8f 40 be
       0.6179162 -0.053480502 -0.2896371 -0.18804863
0000d0 80 8d b6 3e c5 4d 66 3e 05 2e 04 3f b9 7f 33 3f
       0.3565483 0.22490604 0.5163272 0.70116764
0000e0 82 c5 19 be 32 f0 f8 3e 3f cb 6a 3d d1 e8 74 3d
       -0.1501675 0.48620754 0.057322737 0.059792344
0000f0 2f 4a 5c be e8 ee 97 3e f9 89 fb 3e 34 7a 10 bf
       -0.21512674 0.29674459 0.49128702 -0.5643647

weight f4 [32, 65, 3, 3, 3]
000000 aa 92 3d bc d6 34 d6 bb 94 06 c0 bc dd 29 53 3b
       -0.011570612 -0.0065370603 -0.023440637 0.0032220997
000010 0c 23 c6 bb d6 19 3b bc c8 30 81 3c 2d 58 83 3a
       -0.0060466584 -0.011419734 0.015770331 0.0010020785
000020 6a 88 af bc 11 2f 81 3a ef 3f 0f 3c 15 79 01 bd
       -0.021427352 0.0009855946 0.00874327 -0.031609613
000030 df 67 c9 3c 3b 94 8d bc 03 f9 20 3c 92 9c 80 3b
       0.024585662 -0.017282596 0.009824994 0.0039249146
000040 6d 9e 60 3b 51 46 b5 bb 19 8d 74 bc af 13 85 bb
       0.0034274117 -0.005532064 -0.014926218 -0.0040611844
000050 b1 bf d1 bc 0f b7 21 3c 3f c0 50 bc e9 27 0a bd
       -0.0256041 0.009870305 -0.012741148 -0.033729468
000060 e0 97 d1 3a cc fd 6f 3c 45 a0 6b bb 6c 49 aa 3c
       0.0015990697 0.014647912 -0.0035953682 0.020786963
000070 e0 fb 42 bc 91 ba a1 3c 4c bf c8 3b e4 f2 f6 3a
       -0.011900872 0.019742282 0.00612632 0.0018840698
000080 66 48 ac 3a ad 65 ae 3c ce ac 8a 3b e4 75 0a bc
       0.0013144135 0.021288717 0.0042320257 -0.008450959
000090 e0 10 d5 bb 71 79 aa bc fb ea 06 bd 95 88 dc 3c
       -0.006502256 -0.02080986 -0.03293894 0.026920596
0000a0 6d cf 42 bc b0 a7 d4 bc 39 68 1a 3d f3 ad 5e bb
       -0.0118902745 -0.025958866 0.03769705 -0.0033978194
0000b0 8b 4b cc bc 6f 56 25 bb 16 c1 43 3c a4 53 8d bc
       -0.024938365 -0.002522852 0.011947891 -0.017251797
0000c0 f2 0d 88 3c 5b 78 f0 3c cf 69 9f bb d5 f3 35 3c
       0.016608212 0.029354265 -0.0048649083 0.011105497
0000d0 61 33 4e bc f3 9e 3b 3c 29 74 58 bb 0a 43 2a bb
       -0.012585492 0.011451471 -0.0033028221 -0.00259799
0000e0 ba 43 73 bc 71 ed 68 3c 93 90 dd bc c7 6d 93 bc
       -0.01484769 0.014216767 -0.027046477 -0.017996682
0000f0 a9 db 30 3c 01 9d 1f bc 44 db 94 3b a6 58 9a 3c
       0.010794559 -0.0097420225 0.00454274 0.018841099
000100 bb ee 9a bb ab 8b b1 bc 9c 48 33 bb 71 21 a0 bc
       -0.004728166 -0.021673044 -0.002735651 -0.019547196
000110 2e e5 ff bb b0 51 e8 bb d2 0f 14 bd 7d f4 a4 bc
       -0.007809303 -0.007089816 -0.0361479 -0.020136112
000120 a2 27 59 3c 57 47 0b 3c d5 ff fa 3b 97 34 23 3d
       0.013254078 0.008500895 0.007659892 0.039845075
000130 6a 0a 36 3c 6c 4d 7d 3c cb d9 1f bc 74 1d 0f bb
       0.011110881 0.015460353 -0.009756516 -0.0021837624
000140 8d c3 d2 3b 96 8e 79 39 a4 d9 f9 bc a8 9a 0d bd
       0.006432003 0.00023799608 -0.030499287 -0.03457132
000150 bb 81 1c bd 29 3b e0 ba 98 30 ca bc e3 86 08 bc
       -0.038209658 -0.0017107475 -0.024681374 -0.008332941
000160 55 a7 7e bc 0e 8e e8 bc 12 10 0e bd 0f 5e 0d 3b
       -0.015542825 -0.02838805 -0.034683295 0.0021570956
000170 79 dd e1 bc 93 a3 82 bc 10 08 a6 bc 43 b7 d7 3c
       -0.027571427 -0.015947139 -0.020267516 0.026332503
000180 8c 8e 18 bd 43 5c 65 3b 48 84 73 bc 4f 6b 42 bc
       -0.03724532 0.003499762 -0.014863081 -0.011866405
000190 e9 34 1c bc 2b 9a 9a 3c 9d 8f 1d bd 3b de 54 3c
       -0.009534099 0.018872341 -0.03846704 0.012992437
0001a0 8d a3 0e bb f2 bf b3 3a 21 a1 e4 bb 34 23 2e 3c
       -0.0021764964 0.001371382 -0.006977216 0.01062851
0001b0 2f 9b 8e bc c8 de 3c bc 39 ab f5 ba 04 7b 89 bc
       -0.017407982 -0.011527725 -0.0018743045 -0.016782291
0001c0 b9 b1 a8 bb 42 de 00 bc 07 a4 81 bc b4 87 07 bd
       -0.0051481393 -0.00786549 -0.015825285 -0.0330884
0001d0 ed 3c 9f bc e2 7f b1 3c b1 bf 46 3c 01 96 56 3c
       -0.019438231 0.021667425 0.012130664 0.013097287
0001e0 9c bb 8c 3c f3 7c 82 3b 1a d7 c4 bc f6 e3 fd 3c
       0.017179303 0.0039821803 -0.02402835 0.03099249
0001f0 cb 93 8b bb 6f e5 68 bc 4d 2d a4 bb 04 e1 f1 bb
       -0.0042595617 -0.0142148575 -0.005010283 -0.0073815603
000200 0c 92 94 bc 5a ba d3 3b 9a 01 a1 3c c3 00 63 bc
       -0.018136047 0.006461424 0.019654084 -0.013855162
000210 a2 31 a4 bb 92 81 c7 3b 4c 87 0e bd a5 2f e4 bc
       -0.0050107995 0.006088444 -0.034796998 -0.02785475
000220 4f 45 c3 ba 7e 47 61 bc 33 e0 18 bc 52 51 92 3c
       -0.0014897975 -0.013749955 -0.009330797 0.017861042
000230 1a ca 96 3b 91 b3 de bc 3d 32 88 3b c3 9b 5a 3c
       0.004601729 -0.027185233 0.0041563795 0.013342801
000240 04 dd f2 bc eb a5 04 bc 65 0b 7f 3b 05 07 28 ba
       -0.029646404 -0.008096199 0.0038916704 -0.00064097374
000250 ca 79 89 3c 7a e7 c8 3c e4 75 80 bc 95 2a a4 bc
       0.016781706 0.02452444 -0.015681215 -0.020039836
000260 7d 0b 99 bb 94 cf ae bc d6 59 97 ba c0 62 a8 bb
       -0.004670559 -0.021339215 -0.0011547159 -0.005138725
000270 35 4e d7 bc c8 5b 86 3c 5d ff ff 3c 04 28 0a bd
       -0.02628241 0.016401187 0.031249696 -0.033729568
000280 7b 8b 2e bc 9d 36 cc 3c 5e aa 83 3c c6 7a c8 bc
       -0.010653372 0.024928385 0.016072448 -0.024472605
000290 3c e6 a4 3b d9 41 5e bc 67 36 5b 3c 13 ed bc bb
       0.005032329 -0.013565504 0.01337967 -0.005765566
0002a0 cf 76 c3 bc f7 38 9d bc 25 29 93 bb 28 7c c6 3c
       -0.023860363 -0.019192202 -0.004490989 0.024229124
0002b0 c9 02 9d 3c 26 31 1a bc 87 07 dc 3c 35 25 2c 3c
       0.019166367 -0.009411132 0.026859058 0.010506918
0002c0 a1 30 43 bc 63 c9 2e 3c b3 14 95 bc d8 c2 41 bd
       -0.0119134495 0.0106681315 -0.018198347 -0.047304958
0002d0 60 29 90 bc c7 71 02 bd 1d 66 21 3c 6b ab fc bc
       -0.017597854 -0.031846788 0.009851006 -0.030843457
0002e0 77 e5 16 bd c9 94 8a bc 5b ab 86 3b 4b a1 16 bd
       -0.03683993 -0.01691665 0.0041097826 -0.036774915
0002f0 b1 3f 1f bc 7f 85 b7 3c 0a 79 91 bb e8 c7 15 3b
       -0.009719775 0.022402523 -0.004439478 0.002285475
000300 ae a6 80 3c 55 79 d8 3b 8d 13 99 bc ba f0 a5 3b
       0.015704479 0.006606261 -0.01868608 0.0050640972
000310 13 c1 31 3c 57 bb c0 bc 2e c9 ef b9 5c c5 d8 3c
       0.010849255 -0.02352683 -0.00045735523 0.026461296
000320 1c b7 2c 3c ac 9a be 3c ac 59 56 3b e1 a1 13 bd
       0.010541704 0.023267113 0.0032707257 -0.03604305
000330 f8 b5 19 3d df 8f 7d bc 42 7a 1f bd 79 14 05 3b
       0.037527055 -0.015476196 -0.038934954 0.0020306392
000340 50 7c 7e bc 64 b6 53 3c ea 72 08 3c 3c 72 f6 bb
       -0.015532568 0.012921903 0.008328179 -0.007520942
000350 84 f3 85 bb 86 63 09 3d 4d 1d 3d 3c 78 2a a8 bc
       -0.004087867 0.03354218 0.01154263 -0.020528063
000360 db 29 be bb eb 70 ae 3c 23 8c 56 3c 64 3a e6 3c
       -0.0058033294 0.021294078 0.013094935 0.028104015
000370 e3 a5 0a 3d 28 fd 82 bc 53 5d 5d 3c cb 2f 85 bc
       0.03384961 -0.015989855 0.01351102 -0.016258141
000380 bf ea c0 bb 2d 5f fb 3b b8 99 e1 bb 2d b8 4c 3c
       -0.005887359 0.007671258 -0.00688478 0.012495083
000390 0d c7 12 bc 2b 53 ee 3b a3 56 4b bc bc 68 e2 bc
       -0.00895859 0.007273098 -0.0124107925 -0.027637832
0003a0 b8 3f 11 bd a0 34 df 3b 23 5e 14 3c df 32 69 3c
       -0.035461158 0.0068116933 0.009055647 0.01423332
0003b0 e7 93 25 bc c6 bf 1d bd 9b d4 38 3c 7b 56 4f 3c
       -0.010106063 -0.038512968 0.011281158 0.012654896
0003c0 72 df fc bc df be e7 bc 3c 13 76 3a 20 08 7c 3b
       -0.030868266 -0.028289257 0.00093870214 0.0038456991
0003d0 5e 60 7c bc 7b d9 81 3b 9f 7d 76 bc 43 c3 66 3b
       -0.015403835 0.0039626933 -0.015044599 0.00352116
0003e0 85 e2 0b bd df 6e 28 bc c1 07 cc bc 83 6b a0 bc
       -0.034151573 -0.01028034 -0.024906041 -0.019582516
0003f0 ab d0 cd 3c fd f0 dd 3c a1 76 2c bc f6 75 6d bc
       0.025123915 0.027092451 -0.01052633 -0.014493456

bias f4 [32]
000000 fc 95 82 3d d4 85 63 3c 12 86 3f 3d c1 9a 20 3c
       0.063762635 0.013886888 0.04675872 0.009802521
000010 0c 55 a8 3c a9 4f 8c 3d f7 ca ba bc 63 97 20 3d
       0.020548366 0.068511315 -0.02280186 0.039206874
000020 58 f2 66 3c 1a 20 09 3d 34 3c 3a 3c bd 3f 43 3d
       0.014095865 0.03347788 0.011366893 0.047668207
000030 ae 36 46 3b 66 8b 21 3d c7 3a 81 3d a2 72 e1 bc
       0.0030244994 0.03943958 0.06310039 -0.027520481
000040 31 43 e3 3c e6 dc 4a 3b ee 7a 44 3d c0 bf 37 3d
       0.027742 0.003095442 0.047968797 0.0448606
000050 1f f7 82 3d db 85 00 3d b7 1f 16 3d 53 21 d7 bb
       0.06394791 0.031377655 0.03665134 -0.006565252
000060 34 bb d3 3b 34 45 89 3d 9d 97 2d 3d ff 8d a1 bd
       0.0064615253 0.067026526 0.042380918 -0.07888412
000070 ab 97 1f bd 04 fc 50 3d 77 37 a3 3d f5 3b a7 3c
       -0.038963 0.05102159 0.079695635 0.020414332

weight f4 [32, 33, 3, 3, 3]
000000 77 56 b6 3c da 1f c6 bc 98 39 94 bc 95 7d de 3c
       0.022258027 -0.02418511 -0.01809387 0.027159492
000010 d0 8c da 3c 22 1c 2a bd 70 ec a7 3c b5 c8 26 bd
       0.026678473 -0.041530736 0.020498484 -0.040718753
000020 b6 58 06 3a 48 3e 84 bc af d4 0f 3c 55 3a 41 bc
       0.00051249133 -0.01614298 0.008778735 -0.011793693
000030 2f e6 0c bd 79 b5 1a bc 81 64 19 bd 0d 16 ad bc
       -0.034399208 -0.0094426805 -0.037449364 -0.021128679
000040 17 02 45 3c 58 2a 27 3b 50 fa 9d bc 75 08 95 3c
       0.012024424 0.0025507417 -0.019284397 0.01819251
000050 42 fb a6 3c 03 73 b2 bc 80 bf 0b bd fd af 18 bd
       0.020383481 -0.021783357 -0.034118176 -0.03727721
000060 60 3b c7 bc f8 7c e8 bc 61 d3 01 bd a0 a5 ca bb
       -0.024320304 -0.028379902 -0.031695727 -0.006184295
000070 28 68 0b 3c 73 e8 12 3c d5 8d 1e bd 7f 5b 65 bc
       0.0085087195 0.008966553 -0.03870948 -0.013998865
000080 b5 2c 02 3b fb d5 57 bc 0e 9b 57 bc 3f 8d 80 bc
       0.0019863073 -0.0131735755 -0.0131595265 -0.015692351
000090 71 4b 37 3c 8a 50 fd bb a3 2b 93 3c 28 75 03 bd
       0.01118742 -0.0077305483 0.017965144 -0.03209415
0000a0 e1 73 e5 bc 9b d0 d4 bc c2 da 86 3c 01 c0 d5 bc
       -0.028009357 -0.025978377 0.016461734 -0.026092531
0000b0 2b cd 0b bc 48 91 94 3c 24 31 29 39 90 49 8a bc
       -0.008532803 0.018135682 0.00016135402 -0.01688078
0000c0 13 d6 ad 3c 93 d0 a5 3c 03 a6 bb bc 77 b9 57 bc
       0.021220243 0.020241058 -0.022906309 -0.013166777
0000d0 90 93 b8 bc 5c eb 8b 3c 1b 18 1d bd c3 b2 59 bc
       -0.0225313 0.017080002 -0.038353067 -0.013287249
0000e0 56 e2 19 bc 61 ba eb bc c7 95 70 b9 6a b5 b1 3c
       -0.009392342 -0.028775396 -0.0002294398 0.02169295
0000f0 10 3b d8 3c ac a1 0e ba 67 13 b2 bc a2 6a 27 bd
       0.02639535 -0.0005440961 -0.021737767 -0.040873177
000100 2d 41 0a bd 05 30 8c bb ae 44 2e 3a 77 c2 6b bc
       -0.033753563 -0.0042781853 0.00066478073 -0.014389626
000110 de 7c f1 3c 59 07 02 3b fa b7 19 bd e6 1e 3e ba
       0.029478487 0.0019840805 -0.03752897 -0.0007252529
000120 68 07 b1 3b cf 43 c7 bc be 3f 55 3c 67 e2 66 bc
       0.005402494 -0.024324326 0.013015686 -0.014092064
000130 c8 0a 13 3c 4a 74 99 3c 36 58 73 bb dc 9b c0 bc
       0.008974738 0.018732209 -0.0037131435 -0.02351182
000140 4d a4 2a 3b e1 a9 32 bd 4f 8b 40 bc 0d 35 ef bc
       0.0026037872 -0.04361904 -0.011751964 -0.029200101
000150 96 a5 1a bd 06 03 99 bb 25 09 19 3c 69 82 1b bd
       -0.03775557 -0.00466955 0.009340559 -0.037966166
000160 fb 61 3f 3a 45 f2 cd bb 7d 95 98 bc d1 d8 ee bc
       0.0007300672 -0.0062849843 -0.018625969 -0.02915612
000170 e2 c8 a5 bc 84 d9 0c bd 36 98 9e bc dd df 3b bd
       -0.02023739 -0.034387127 -0.01935969 -0.04586779
000180 cc 82 13 bc 88 5e 37 3c 00 b6 ae bc 3b 02 a1 bc
       -0.009003352 0.011191972 -0.021327019 -0.019654384
000190 3b f2 c4 bb 30 3c 24 bc 07 80 17 3c 07 85 4d bd
       -0.0060103214 -0.010024115 0.009246833 -0.050175693
0001a0 62 69 95 3c ab 36 0a bc a0 b7 0d 3d 78 14 e2 bc
       0.018238727 -0.008435885 0.034598947 -0.02759765
0001b0 34 6f 09 bc 07 ea 26 bd 8d 9f 48 3b 53 bb 59 bb
       -0.008388329 -0.04075053 0.0030612678 -0.0033223226
0001c0 1e b5 0c bc 4e 24 09 bb f8 eb 4e 3c e0 76 ec bc
       -0.008588104 -0.002092618 0.0126295015 -0.028865278
0001d0 ce 24 07 bd 82 00 88 b9 17 10 90 bc 51 9e ce bc
       -0.032994084 -0.0002594032 -0.017585797 -0.025221976
0001e0 c9 54 44 bd e6 83 18 bd b7 76 fa 3b 79 59 9c bc
       -0.04793242 -0.037235163 0.0076435464 -0.019085633
0001f0 c6 2e 5e bd cc 84 26 bd c6 9f 14 bd e2 d0 85 bc
       -0.054243825 -0.04065399 -0.036285184 -0.016334955
000200 fa 3e 36 bd a6 d0 9f 3c 21 71 1e 3d 68 17 08 3b
       -0.044493653 0.019508671 0.038682107 0.0020765904
000210 47 c1 2e bb 04 87 c0 bc bd 3e 0e bc 9c 4b dc 3c
       -0.0026665495 -0.02350188 -0.00868195 0.026891522
000220 ba bf 8b 3a dd 83 99 3b db 2a 87 3b 60 65 8d 3b
       0.0010661997 0.004684909 0.004124982 0.0043150634
000230 a1 f1 7d bc 95 e1 b4 3b 94 48 f9 bb 03 01 23 3b
       -0.015499503 0.0055200555 -0.007607529 0.002487243
000240 a4 04 99 3c 84 20 e0 bc 7b d2 eb 3b 2a 0e 8e 3c
       0.01867897 -0.027359255 0.007196722 0.017340738
000250 f7 23 19 bd 60 b8 0b bd 67 65 6d bc 7d 64 20 bb
       -0.037387814 -0.03411138 -0.014489508 -0.0024473958
000260 25 51 fe bc 4c 0a a8 bc 85 6f 66 bc 3c 32 41 3b
       -0.031044552 -0.020512722 -0.014064674 0.0029479405
000270 2f 8b 87 3b f5 8b 8a ba 91 24 58 3c ed 94 46 3b
       0.004136465 -0.0010570275 0.013192312 0.003030117
000280 67 bc b9 bc 35 eb 07 bc 05 79 5c bc 6c 03 17 bd
       -0.022672845 -0.008295824 -0.013456588 -0.036868498
000290 6b ed 54 bc b5 7b be bc 5e bb c0 bc cc 64 36 bc
       -0.012996058 -0.023252347 -0.023526844 -0.01113243
0002a0 9d 49 0e bc 83 35 22 3b 90 5e 37 3c f3 df cd bc
       -0.008684543 0.0024751134 0.011191979 -0.025131201
0002b0 f5 8e b7 bc 51 c4 ab bb bd 69 c4 bc 68 43 4b bc
       -0.022407034 -0.0052419086 -0.023976201 -0.012406208
0002c0 1c 3c 96 bc 62 fb 35 bd bd 87 29 bd 99 60 26 3b
       -0.01833921 -0.04442919 -0.041389216 0.0025387167
0002d0 19 0d 39 bd 00 63 12 bd 14 05 40 bc 74 6b 74 3c
       -0.045178507 -0.035738945 -0.011719961 0.014918197
0002e0 5a 0d a6 bc 28 d7 b5 3c 1e 12 2f 3c fa ce bc bc
       -0.020270038 0.022197321 0.010685472 -0.023047913
0002f0 1c 16 99 bc 68 11 39 bd 01 20 42 bd c3 f7 99 bc
       -0.0186873 -0.045182616 -0.047393803 -0.0187949
000300 a0 43 d3 bc 61 70 52 bc 4c 93 16 bd e3 83 59 3c
       -0.025789082 -0.012844176 -0.036761567 0.013276073
000310 ac b1 26 bc c1 36 3f 3c 85 d1 41 bd 10 a6 d0 bc
       -0.010174196 0.011670769 -0.047318954 -0.02546981
000320 81 0b 0e 3c 36 c1 8f bc f4 26 95 bd 2f 4c ea ba
       0.008669735 -0.017548185 -0.0728282 -0.0017875488
000330 31 7b 56 3c 9c e9 b8 3c d8 bc d1 bc 08 2e 68 bd
       0.013090895 0.022572331 -0.025602743 -0.056684524
000340 df 02 28 bd 9d c0 12 3c 72 34 81 3b 23 5e 19 bd
       -0.041018363 0.008957055 0.0039430195 -0.03744329
000350 51 1b df 3c 9d 13 35 3c a6 10 a0 bc cb 5f 75 3a
       0.027234705 0.011052039 -0.019539189 0.00093602826
000360 28 bb dd 3c 3b d7 1f 3c 78 82 85 3c 12 f2 d8 bc
       0.027066782 0.009755905 0.016297564 -0.026482616
000370 7d 11 1f 3b 6b 59 98 3c 68 c8 8d 3b c5 11 e8 bc
       0.0024271898 0.018597325 0.004326869 -0.028328786
000380 98 c1 8e 3c c3 b3 e7 bc 6f cd fd bc 25 31 8d bc
       0.017426297 -0.02828396 -0.030981747 -0.017235348
000390 7c 3b de bc 46 de 9d 3c 97 da 0d bc 35 5b 46 bd
       -0.027127974 0.019271027 -0.008658073 -0.048426826
0003a0 22 1b 0c 3d b3 fe 52 3c 36 26 90 3b 96 8b b4 3c
       0.034205563 0.012878108 0.0043990863 0.022039216
0003b0 78 01 41 3c c2 69 fc bc f0 18 ab 3c a1 a2 44 3b
       0.011780135 -0.030812148 0.020885915 0.003000416
0003c0 cc 65 64 3c 23 da bb bc 4a 2c 05 bd ff 1a de bc
       0.013940286 -0.022931164 -0.03251294 -0.027112482
0003d0 3f 0d e3 bb 23 83 aa bc d9 b3 44 3c 90 e8 8f bb
       -0.0069290693 -0.020814484 0.01200577 -0.0043917373
0003e0 71 5d a3 bc b7 fe b4 3c ee 03 a6 bc 1a 3c e4 bb
       -0.019942017 0.022094114 -0.020265546 -0.0069651725
0003f0 4d 15 83 bc 3a 7c 94 3c b6 a4 12 3b b4 bc 4f ba
       -0.016001368 0.018125642 0.0022376007 -0.00079245423

bias f4 [32]
000000 d7 99 07 bd e5 9f 37 bd a7 0f 2e 3d 9c 19 04 3d
       -0.033105697 -0.04483022 0.042495396 0.032250986
000010 9e 3c cd bc 6c 4a 04 3d df 02 08 3d ea c5 2a 3d
       -0.025053319 0.032297537 0.033205863 0.04169265
000020 ed 54 87 3b 23 7a 4b 3c ca e4 3b 3c d0 63 a4 3b
       0.004129997 0.012419256 0.011468122 0.0050167814
000030 bf 7a 49 3b f1 43 e1 bc b0 0a 57 bc 0a 41 42 3c
       0.0030743328 -0.027498217 -0.013125107 0.011856327
000040 e0 d7 98 bc 77 dd bc b9 2b 06 bc 3c 14 d5 5a 3c
       -0.018657625 -0.00036023158 0.02295216 0.013356466
000050 27 71 42 3d f5 90 d5 3b 5b 8e 53 bb 8a 4d 21 bc
       0.04747119 0.0065175244 -0.0032280895 -0.009845147
000060 fa 93 af 3c b0 41 be ba de 76 f6 bc 47 dc 50 3c
       0.021432865 -0.0014515426 -0.030085977 0.012747831
000070 3f a4 24 3c d5 b3 30 3d fd 16 8a 39 d9 43 40 bd
       0.010048925 0.04314025 0.0002633854 -0.046939705

weight f4 [3, 32, 1, 1, 1]
000000 d2 4b a9 bd d2 78 49 bb 73 03 b8 3d 3c e9 cd 3d
       -0.08266415 -0.003074218 0.08985033 0.100542516
000010 7c 96 2a be f8 47 01 3e 1d 93 83 3e 0d 75 19 bd
       -0.16658968 0.1262511 0.25698176 -0.037465144
000020 67 ae 1c be b3 dd 2f be 48 97 68 be 43 08 23 3e
       -0.15300904 -0.17174415 -0.22713959 0.1592112
000030 45 a4 09 3e 9f 92 3b be 42 25 e1 3d 53 fc 20 3e
       0.1344157 -0.1831765 0.109934345 0.15721254
000040 42 1f 29 be ae b4 e9 bd 87 c9 55 3e e9 3e 21 be
       -0.1651583 -0.11411415 0.20877658 -0.15746655
000050 50 c1 8f 3d 99 cf a2 3d c2 6f 7f 3e 51 ee 10 3e
       0.07019293 0.07949752 0.24944976 0.1415341
000060 a8 9c ca 3e 9d 94 08 be 1b 28 23 bd 91 79 f6 be
       0.39572644 -0.13337941 -0.03983317 -0.48139623
000070 d5 52 98 be 29 66 62 be d5 7a 49 3c 24 29 56 3c
       -0.29750696 -0.22109284 0.012297352 0.013071332
000080 16 fd 2f be 85 d9 a7 bd 55 a2 21 3e e9 43 ad 3d
       -0.17186388 -0.081957854 0.15784581 0.084602185
000090 0c e6 95 bd e4 7d a5 3e c6 8b 7b 3d 6d e2 3d 3e
       -0.073192686 0.3232261 0.061412595 0.18543406
0000a0 fe 6e 3c be 7b 43 88 bd 99 35 e9 3c 67 bb 91 3d
       -0.18401715 -0.06653496 0.02846794 0.07115822
0000b0 6a 37 0e be 02 2f 2d be b4 05 4c 3e 57 9e 22 be
       -0.13888326 -0.16912463 0.1992405 -0.15880714
0000c0 6f e3 42 be 11 0e c0 be e2 0b 58 be aa b5 93 be
       -0.19032072 -0.37510732 -0.21098283 -0.28849536
0000d0 cf 53 d8 3d eb a6 f4 3b 71 05 5d be e9 44 25 be
       0.1056286 0.0074661872 -0.21584107 -0.16139568
0000e0 4d 8d d2 3e 61 27 fe 3d 88 16 86 be 98 79 7e 3e
       0.4112343 0.12409855 -0.26189065 0.24851072
0000f0 1c 0d bc 3e 34 f5 fd 3d 59 48 c2 3d 0a 93 5b be
       0.36728752 0.124002844 0.094864555 -0.2144281
000100 d3 50 d4 3c 75 08 cb be 49 f4 72 3d 70 14 5d 3e
       0.025917446 -0.3965489 0.059315 0.21589828
000110 9f 7b 8c bd 1c fa 57 3e 81 fd 77 3e f0 18 c7 bd
       -0.06859516 0.21091503 0.24217798 -0.09721553
000120 be f4 32 3e eb 42 79 3e 4b c3 71 be 37 52 31 3e
       0.17476174 0.24341933 -0.23609655 0.17316519
000130 51 15 d5 bc 03 73 00 3e 10 0c ea bd 7c a3 09 bd
       -0.026011141 0.12543873 -0.11428082 -0.033603176
000140 e8 d6 71 3d 6d 65 ea 3e cd 3f ea bd 9f 53 92 3c
       0.05904284 0.45780507 -0.1143795 0.01786214
000150 c3 2e 0f be 4b 8f fa 3d 9b d5 77 3e b3 53 cd bd
       -0.13982682 0.12234362 0.24202578 -0.1002573
000160 da 19 2a 3e 25 a9 25 3e a2 81 f3 bd 60 0c ad 3e
       0.16611424 0.16177805 -0.1188996 0.33798504
000170 a3 51 57 3c 05 ae 5f 3d 03 e0 cc 3d 75 80 cb be
       0.013142022 0.054609317 0.10003664 -0.39746442

bias f4 [3]
000000 e8 11 c1 bb 0c 2d bc bd 24 c4 28 3e
       -0.005892027 -0.091882795 0.16481072
